ckpts/LunarLander-v2/TRPO/20/actor.pth (torch, 7703 bytes, 6 tensors)

fc1.weight f4 [32, 8]
00000000: 7e3e e53d ded9 46be ca6b 8a3e c2fc 40bd
00000010: 0af5 5fbe a8af a93e 520e 933e 28bc 97be
00000020: 0496 78be b108 963e 1bff 87be d4e5 0fbe
00000030: a15e bf3e 1681 24be 86e2 033e 9c2b 063d
00000040: 4847 bfbd 6c4a 0ebd cc38 803d b443 c1be
00000050: 6a56 663e 0e64 84bd cd7f 853e 6c8c 66be
00000060: 44cb 10bc e89a 50be 1204 4e3d 9212 fe3d
00000070: 1466 6e3e 82ba f33e 1ed2 06be 5301 a6be
00000080: 08cc 443e de31 e5bd d442 90bd 0c21 46be
00000090: b013 7ebe 69e9 dcbd 9087 5bbe b2e2 c13d
000000a0: e2c2 fe3d 4e7c 233e 43af 8cbe 6bff 843e
000000b0: bb3d a73e 21f6 62be a4ba 493e 122a a3bd
000000c0: 7d5b 9ebe 03ba 7dbe 514c b4be 3a09 5fbe
000000d0: 31c1 413e 2c30 6a3e f45b 493e 80ce 403e
000000e0: 287d b1be d630 9a3e e956 5abd c031 383e
000000f0: 690a 9c3e 5617 ccbd e487 723d e914 883e
00000100: 0017 b23e 2cc7 903e 54f9 7ebe b55f b73e
00000110: cfa2 ef3d c6b6 91bd 01b0 66be f535 bb3e
00000120: 714d 58be 9c0f 6c3e 0a14 4f3e c0cd 8cbe
00000130: 02d6 9fbe 88c2 23bf e1c3 7a3d bebd 6a3e
00000140: 5ee2 34bc f8be acbe c2a9 073e 6571 803d
00000150: 4466 533d 87db 8dbc b55c 90be 5bdc 92be
00000160: 7898 d1be d77f 833e e0ed b9be 3a4c bbbe
00000170: 462c f73d a689 be3d 97a0 bcbe ca21 63be
00000180: f4d5 11bd 3ff9 043e 57b3 aebe 4013 d83e
00000190: 3d11 c73e 10ea 25be 4823 a33d 5bea 95be
000001a0: 2e68 00be 2ea2 2dbd 4aee a43e cde9 623d
000001b0: 2338 06bf f027 d6be 943c 283e c0a2 533e
000001c0: 7074 b2be e09f a6bd a958 11bc f6a4 273e
000001d0: 7312 a13e f537 d1be 1ce6 10bd baf9 a2be
000001e0: d716 7ebd 73d2 bc3e bfa1 983b 4705 aa3e
000001f0: bc08 b2be b3ad 0bbd 56bb 8d3e 374e a83e
00000200: 005e 9abe 42bc 903e 8f56 1f3e 54d6 f1bd
00000210: e877 0ebf 46d9 f1be 08dc 613e 5255 473e
00000220: e040 013c 28d9 85be 0428 bf3d b8e8 21be
00000230: 4809 ca3c 29eb 13be 9cb8 553e 650c 9bbe
00000240: 703d 4cbe 7253 e0bd f74d b03e 3c88 6bbd
00000250: 5d7b 8ebe 459d 963e 7b7d bb3e 9792 0ebe
00000260: 85aa c33e 964d 12be 1a73 653e 381c 6fbd
00000270: 1b50 013e 6346 353e 07d5 ae3d aa2e 593c
00000280: 4717 7bbe e864 6ebe 8809 cbbe 43d0 97be
00000290: 23aa 9e3e 51e6 88be 2bb4 27be aa0e acbe
000002a0: 3cb0 7abe 8a2c a23e f632 a9bd ae31 563e
000002b0: e7ce 96be 3aff 263e c2ba 2c3e e2d8 95bd
000002c0: b7ec bc3d 3815 55bc 4256 c13e 922c b53e
000002d0: ff20 eebe 06ba 9abe 2973 783e c1da b43e
000002e0: 8610 62be 5ebe 8d3e 242f 66be ff07 8b3e
000002f0: d870 debe 9c49 0a3e 7131 8e3e 1344 983e
00000300: 2212 db3d 97f0 a63e 3200 003e 0ae4 2cbe
00000310: 9ee1 d43e 9bc2 9dbe ba08 7ebe d037 8c3e
00000320: 8033 5e3a d666 4f3c 90f8 213e f0fc c93e
00000330: 5028 c23d fe53 7a3e 5f17 023e fcf8 b73d
00000340: 2986 6ebe 0e5a 3b3b a65a 6abe 4bdb b83e
00000350: 024b 2f3e fcba b03c 6d70 82be cbb9 ffbd
00000360: 4c11 1fbd 4cf8 7ebe c0cd d83d 66dd 06be
00000370: e13f 123e 82af 5e3e a4d4 1d3d 7ce5 103e
00000380: 5bbd 9d3e c998 c03d e5d9 9d3e b9a1 94be
00000390: 1a4f e4bd 5ad0 fcbd 58b4 b13e b17a 9c3e
000003a0: 4e83 813d 108b 013e 64ab 9d3e ea6d 36bd
000003b0: 9ed9 343e 431c a33e b0f2 4abe 7c84 2bbe
000003c0: 3a12 bfbe 1081 163e 6248 f3bc ec10 57be
000003d0: 98b9 7c3e d09b b7be cc9c 51be ac4d b6bd
000003e0: e28b 523e 1c89 acbe c347 dc3e b06f d1be
000003f0: 52b6 7abe 46d1 74be 5545 80bd b525 c93e
0.1119356 -0.19419047 0.27035362 -0.04711605 -0.21870819 0.33141828 0.28721863 -0.2963574
-0.24275976 0.29303506 -0.26561818 -0.14052516 0.37376884 -0.16064867 0.1287938 0.032756433
-0.09339768 -0.034738943 0.06260833 -0.37746966 0.22493902 -0.064643964 0.26074067 -0.22514504
-0.008837525 -0.20371592 0.05029685 0.12405886 0.23281127 0.47603232 -0.13166091 -0.32422885
0.19218457 -0.11191152 -0.070439965 -0.19348544 -0.24812198 -0.10786707 -0.21438432 0.09467067
0.12439515 0.15965387 -0.27477464 0.25976118 0.32664284 -0.22164203 0.19700104 -0.07967009
-0.30929175 -0.24777989 -0.35214475 -0.21780863 0.18921353 0.22869939 0.19663984 0.18828773
-0.346658 0.30115384 -0.05330554 0.17987728 0.30476692 -0.099653885 0.059211627 0.26578453
0.34783173 0.28276956 -0.24899799 0.35815206 0.11700975 -0.071149394 -0.22528078 0.36564603
-0.21123292 0.2305283 0.20222488 -0.27500725 -0.31217963 -0.63968706 0.06122196 0.22923943
-0.011040298 -0.33739448 0.13248351 0.06271628 0.0516112 -0.017316593 -0.2819573 -0.28683743
-0.40936637 0.25683472 -0.36314297 -0.36581594 0.12068991 0.09303598 -0.3684127 -0.22180858
-0.035604432 0.12985705 -0.341212 0.42202187 0.3888034 -0.16202569 0.07965714 -0.29280362
-0.12539741 -0.042390995 0.3221305 0.05539875 -0.5242941 -0.41827345 0.16429359 0.20667553
-0.3485446 -0.081359625 -0.008871236 0.16371521 0.31459388 -0.40863004 -0.0353757 -0.3183115
-0.0620335 0.3687931 0.0046579535 0.3320715 -0.3477229 -0.0341012 0.27681988 0.32872173
-0.3014984 0.2826863 0.15560363 -0.11808458 -0.5565171 -0.4723608 0.22056592 0.19466141
0.007889003 -0.2614224 0.09333804 -0.15811431 0.024662629 -0.14445175 0.20871204 -0.30282894
-0.19945312 -0.10953416 0.34434482 -0.05750297 -0.27828494 0.29416862 0.36619172 -0.13923107
0.38216034 -0.14287409 0.22407189 -0.05837652 0.12628214 0.17702632 0.085367255 0.0132557545
-0.24520598 -0.2328068 -0.3965571 -0.2965108 0.3098918 -0.26738217 -0.16377322 -0.33604938
-0.2448129 0.31674606 -0.08261673 0.20917389 -0.2945473 0.16308299 0.16868117 -0.07316758
0.09224837 -0.013005547 0.37761122 0.35385567 -0.4650955 -0.3022005 0.2426268 0.35323146
-0.22076616 0.276843 -0.2247892 0.27154538 -0.43445468 0.13504642 0.27772096 0.29739437
0.10696818 0.3260543 0.12500075 -0.16883865 0.41578382 -0.30812535 -0.24808016 0.27386332
0.0008476302 0.012658795 0.15817475 0.39450788 0.09480345 0.24446103 0.12704228 0.08983037
-0.23293366 0.0028587612 -0.22886142 0.36104807 0.17118457 0.021573536 -0.254764 -0.12486609
-0.038834855 -0.24899405 0.10586119 -0.13170394 0.1428218 0.21746638 0.038532868 0.14150041
0.3080853 0.094041415 0.30830303 -0.29029635 -0.111479 -0.123444274 0.34707904 0.30562356
0.063238725 0.12650704 0.30794823 -0.044538416 0.1766114 0.318575 -0.1981914 -0.16749758
-0.37318593 0.14697671 -0.0296976 -0.21002549 0.24680173 -0.35861063 -0.2046997 -0.089015335
0.20561174 -0.33698356 0.430235 -0.40905523 -0.24483612 -0.23907956 -0.06263224 0.3928658

fc1.bias f4 [32]
00000000: 465a 2a3e f422 a23d f5e7 983e f0bb 6e3e
00000010: 4486 ff3d 67f2 27be 14e8 49be ee32 82be
00000020: da37 8ebe b7c4 c7be 281d dfbd 7168 223e
00000030: 738a a5be 5534 c63b f45b 54be 6041 983c
00000040: 0222 b7be 344f 543e ff55 863e c65c 94be
00000050: a6ce cfbb 1244 f1bc d636 693e b778 873e
00000060: 9da2 073e 6750 133d a928 15be d7cd 8dbe
00000070: 5049 a2bc 5429 4b3d 1f30 a93d fb38 ba3e
0.16635999 0.07916823 0.2986447 0.2331388 0.12476781 -0.16401063 -0.19717437 -0.2542948
-0.27776986 -0.3901727 -0.10894233 0.15860154 -0.3233219 0.006048719 -0.20738202 0.01858586
-0.35768133 0.20733339 0.26237485 -0.2897703 -0.006341773 -0.029451404 0.22774825 0.26459286
0.13245626 0.03596535 -0.14566292 -0.27696106 -0.019810349 0.04959996 0.082611315 0.36371598

fc2.weight f4 [32, 32]
00000000: 142d 473e 2039 abb9 b1c5 04be c313 e9bd
00000010: d0e8 28be ce8c d7bd c628 adbd ecb9 f73c
00000020: d612 32bd 2c78 f1bc fba9 64bc 6868 9cba
00000030: b2ab 2dbe 7c62 083e e2da 9b3b f6d3 d5bc
00000040: c7d8 553e 71cc 283d 79db 31bc 85b7 1b3e
00000050: 9619 2dbd 01e7 0cbd a0a9 d43d c079 263e
00000060: 88b4 a3bd bc69 f8bc 387e 5ebd c836 7ebd
00000070: 2bd3 4c3e 04e1 dc3d 7598 013e 6ccd 663e
00000080: 2732 2d3e da51 ac3d 54a7 ebbc c62a 853e
00000090: 4445 01be ee82 0ebe f214 d9bd ad77 33be
000000a0: 82ca 163e e2d2 3bbe 1ff3 b6bc c551 5fbc
000000b0: 401b b0bd 5bb3 9abe 334b 5bbe 32a8 013e
000000c0: 2afa 83be 0243 bbbd 9425 10bd 1ff8 653e
000000d0: 3cec cc3a 2cc2 01be 4ff8 20bd f102 17be
000000e0: d62a 2cbe 3b26 523e c836 8bbd f81a 48bd
000000f0: a60a 963d 468b 133e acbb 43bd c537 83be
00000100: 9e0f 6d3d f667 193d 5a74 aa3d 35f6 743e
00000110: 5540 8bbd 8130 a0bd d025 ac3b 7b72 00be
00000120: aaa2 5bbd a9d7 1bbe 3ef9 95bd 12d4 783d
00000130: e879 09be 9f48 2fbe d881 0ebe a68d 37be
00000140: 8c85 9bbc f3d5 57bd c51b 4a3e dad7 0e3e
00000150: ba08 18bd 8499 253e 242a 2cbe dfa1 c2bb
00000160: 09d2 13be 3250 543e 24cf 6d3c f42c b3bd
00000170: 75b1 20be 6561 9d3d e067 43be 61ed 2dbe
00000180: 2811 b2bd c662 1abe 46e2 2ebe ebeb 0bbe
00000190: 2f27 d0bb 9052 a03d a6e7 71bd 29ea 2dbd
000001a0: 80df 73b9 48d1 f43d 12cc 973d 4ac2 a5bd
000001b0: 6218 afbd 5454 9dbd e697 083e f4de 333d
000001c0: 4f20 183e 0387 f03c 4628 493e 6296 a33d
000001d0: a4b6 863d 4d86 3a3e 202e 2c3e abe8 3d3e
000001e0: 36e0 00bd 848d 8ebc da19 e2bd e275 823d
000001f0: 5f3d 523e cddd 0a3e 66d2 c13b ee74 eebd
00000200: 94b8 71bd 3a40 d8bd 8d4e 36be 4517 19be
00000210: 341c 8e3d 4dbc 213d 52ed 0d3b 0a1d 20be
00000220: 4441 f0bd 502e 6cbd 6c6a 9b3d 3d68 0c3e
00000230: 0894 ca3c afe5 9cbc 4555 273e 1941 e3bd
00000240: 5464 8c3c 3504 2f3c 58d2 c83b cc8e a43d
00000250: e078 c8bc a0ea 893d 7638 dabd e42b 9c3d
00000260: 34da aa3d ae69 f4bc 7cd4 31bb 067a f2bc
00000270: 841f ae3d 52c8 e53d 94d2 bc3c df1d 09bc
00000280: e597 d5bd d558 383e 0ee3 80bd 506f 0d3d
00000290: 9ebd 02be 007d 22be 328c 00be 4c28 ccbd
000002a0: c63f a9bd de89 453e 0bd8 8e3d 089c 0f3b
000002b0: 6c41 e1bd 8efd 363e 2bae 143e 8213 f8bd
000002c0: 6a43 823e b351 f0bd 1d9d 00be 87c4 9cbd
000002d0: 0515 123e 405e 10be cedb 043e 44ec d13d
000002e0: 5c6e d33d 38f2 793c c819 8e3d e693 36be
000002f0: 029c 39bc 7839 893c 2bcc 563d 8ba0 533e
00000300: cc5e 15be e8ab 9b3d 6e42 62bd 3969 0e3e
00000310: eaa0 b2bd 2f59 64bc dec6 173e 88ad 2d3e
00000320: b552 233e 4ead 2cbe 7e69 383e 04bd 433e
00000330: 88c3 62bd 8ad3 bcbe 4d95 163e bca7 3bbe
00000340: 82e4 acbe 9660 093e 68f9 52be b3c1 0abe
00000350: 860a 683e af4b 44bd 6431 25be ea6b f9bc
00000360: 3e6a 2d3e 4214 e7bd e4da b4bd 4c36 82bc
00000370: 5cf9 6ebe fa41 f33d 3c81 593d 9bb0 81bc
00000380: 5238 753c 11e2 27be 5854 023e 6c86 003e
00000390: d856 973c d0a2 f83c 684d fb3b d078 38bd
000003a0: 7489 ab3d b4c0 d83d ff0c 31be c564 033e
000003b0: fac9 123e 3df9 c23c 987b 21bc 5d7a 04be
000003c0: 18ed 67bd 3afb d3bd adb6 1b3e ad67 0c3e
000003d0: de62 27be e399 883c e332 263c 6d79 0ebe
000003e0: acb5 40bc 6534 403e c877 ed3d b656 fabd
000003f0: 4621 083e 9186 a33a 7cb9 4ebe fa1e d13d
0.1945079 -0.00032658223 -0.12966038 -0.113807224 -0.16495061 -0.10524903 -0.084550425 0.030240022
-0.043474995 -0.029476248 -0.013956542 -0.0011932971 -0.16960028 0.13318819 0.0047563175 -0.026102047
0.20883475 0.041210596 -0.010855549 0.15206726 -0.04226073 -0.03439999 0.10383916 0.16257381
-0.07993418 -0.030323856 -0.05431959 -0.062063962 0.20002429 0.10785106 0.12655814 0.225393
0.16913663 0.084140494 -0.028766312 0.26009196 -0.12624079 -0.13917133 -0.10599698 -0.17526121
0.14725688 -0.18342164 -0.022332726 -0.013630335 -0.085989475 -0.30214962 -0.21415405 0.12661818
-0.25776798 -0.0914364 -0.035192087 0.22457932 0.0015634368 -0.12671727 -0.039299306 -0.14747216
-0.16813216 0.20522396 -0.06797558 -0.048853844 0.0732625 0.14408597 -0.0477864 -0.25628486
0.05787622 0.03745266 0.083229735 0.23922046 -0.0679938 -0.078217514 0.005253531 -0.12543671
-0.053621925 -0.15218987 -0.0732293 0.06074912 -0.1342541 -0.17117546 -0.13916719 -0.17925128
-0.018984579 -0.052694272 0.19737156 0.13949528 -0.037117697 0.16171843 -0.1681295 -0.0059397067
-0.14435591 0.20733717 0.014514718 -0.087488085 -0.15692694 0.07684592 -0.19082594 -0.16985084
-0.086946785 -0.15076742 -0.17078504 -0.13664214 -0.0063523273 0.078282475 -0.059058808 -0.04245964
-0.00023257546 0.1195398 0.0741197 -0.08093698 -0.085495725 -0.076821 0.13339195 0.043913797
0.14856075 0.029361254 0.1964427 0.079876676 0.06577805 0.18215294 0.1681447 0.18545787
-0.031463824 -0.017401464 -0.11040087 0.063701406 0.20531224 0.13561173 0.005914974 -0.11643396
-0.059013918 -0.10559125 -0.17803402 -0.14950283 0.06938973 0.03948622 0.0021656347 -0.15636078
-0.117311984 -0.057661355 0.07588658 0.13711639 0.02472879 -0.01915249 0.16341121 -0.11096401
0.017137684 0.010682155 0.0061285906 0.08035049 -0.0244717 0.06734204 -0.106553 0.07625559
0.083424 -0.029835548 -0.0027134707 -0.029599201 0.08502105 0.11219849 0.02304963 -0.008368938
-0.10429362 0.18002637 -0.06293307 0.034529984 -0.12767646 -0.15867996 -0.1255348 -0.099686235
-0.08264117 0.19290873 0.06974801 0.002191307 -0.10998806 0.17870161 0.14519565 -0.12113096
0.25442058 -0.11734333 -0.12559934 -0.07654672 0.14265831 -0.14098454 0.12974474 0.10250142
0.10323784 0.015255503 0.06938511 -0.17829856 -0.011328699 0.016751036 0.052440803 0.20666711
-0.14586943 0.07601148 -0.055239134 0.13907327 -0.08722098 -0.013937279 0.14821956 0.16960728
0.15949519 -0.16862985 0.18008992 0.19115072 -0.055362254 -0.36880141 0.14705391 -0.18325704
-0.33768088 0.13415751 -0.20602953 -0.13550453 0.22660264 -0.04792374 -0.16132122 -0.030446965
0.1693506 -0.11283161 -0.088308126 -0.015895031 -0.2333731 0.118778184 0.053101763 -0.015831282
0.014967041 -0.16394831 0.12727487 0.12551278 0.018474028 0.030351073 0.0076691397 -0.04503709
0.083758265 0.1058363 -0.17290114 0.1283141 0.1433486 0.023800487 -0.009856127 -0.12937303
-0.056622595 -0.10350652 0.15206404 0.13711424 -0.16346309 0.016674941 0.010143968 -0.13913508
-0.011762064 0.18769987 0.11595112 -0.1222357 0.13293943 0.0012476017 -0.20187944 0.102109864

fc2.bias f4 [32]
00000000: dea7 83bd aa9c 76bc 8d4d 9abd 64c0 1abe
00000010: cda7 e6bd b4ed bbbd 5a27 5bbc 46c2 aebd
00000020: 4e94 68bd 0c47 e23d f40d 46bd 3280 bb3c
00000030: 2852 1abd c097 4bbe 7774 06be 366d 6e3c
00000040: 4629 fb3d 42db 073e 4a67 e33d 1f4f 403e
00000050: 0c3a a33d 5aa3 abbd 1838 29be 5676 adbb
00000060: 2000 963d b2b9 86bd b765 87bd d527 943c
00000070: 3e6f 28bd 2086 5ebe 4c2b de3c 0a9c e33d
-0.064285025 -0.015052 -0.07534323 -0.15112454 -0.11262474 -0.09176198 -0.013376081 -0.085331485
-0.05678206 0.11048707 -0.04835315 0.022888277 -0.037676007 -0.19882107 -0.13130365 0.014552405
0.12263732 0.13267234 0.11103685 0.18780182 0.07970056 -0.08380766 -0.16525304 -0.0052936478
0.073242426 -0.06578387 -0.066111974 0.0180854 -0.041121714 -0.21730852 0.027120255 0.111137465

fc3.weight f4 [4, 32]
00000000: 39cd 53be f69a 85be d739 8fbe 6ade f5bd
00000010: ea14 113e c5cc 003e 4630 333e 2b23 6e3c
00000020: 380e bebc ae49 243e 78a6 97bc 1ebe 8ebc
00000030: 16a6 aabd 5877 c23d 6cd9 c73d 7af7 543d
00000040: e858 263e 4116 37be f826 e63d 911c c5bd
00000050: 276e 9c3e 0dd3 0c3e f2d4 243e 94bd 213e
00000060: e45b 5b3e 8692 943c bfbe 11bd 462c b93e
00000070: 5df6 a83d e440 d23d f9dc bbbb bc7b 25bd
00000080: 82fd 833e 6696 36be 0070 4ebd d3ed 5b3e
00000090: 364f 7b3d 8c74 8f3c 3da6 12bf a644 433e
000000a0: a4a7 4dbd 011a 573d 2ddc cbbe 8f2e b0be
000000b0: f1cf aa3e 800c 9c3e 7859 a33e c3c6 dcbe
000000c0: 33bb c63d 9891 f13d 98c8 efbd e466 b4be
000000d0: 9c40 16bf 0688 e83d c4a5 cdbc ee23 ac3d
000000e0: 4120 a3bc 7011 bd3e 72b8 e9bd 2cc9 523b
000000f0: 5469 53be 19e9 b83e 9059 ba3d 4746 c5be
00000100: 5a66 893d ff19 b4bd cf67 b63d cc62 2cbe
00000110: 6aa1 0a3e 02dd 013e 912b 243e dcf3 8d3c
00000120: d3d9 75be 954b 94be 4273 1d3e 0c8b 313e
00000130: 7ca7 04be 49e6 adbd 76f3 84bd e253 65be
00000140: 8906 41be 2609 39be 6e5b 2a3d 5e03 6b3e
00000150: 68fe 1b3e bce9 8cbc 7cd8 98be 1e77 2abe
00000160: 5893 f53d 4ef9 723d 33c8 9cbd 1c51 d0bc
00000170: 16ef ddbc 7d05 27be 229c efbe 6bdd de3e
00000180: 6219 52be f69c fa3e 7ed6 b33e 31ac 24be
00000190: b837 fc3d 24a4 b8be 41a9 ab3e 433d 423e
000001a0: b351 093d 7864 ec3d 8c38 8b3e b33f 07be
000001b0: 44a8 70be 3e37 0abc 9b10 86bd caad ae3e
000001c0: 796b cb3d d053 d63e d498 65bc 3d54 213e
000001d0: bce4 423d 767e d7be 7860 6e3e 3ae9 4cbd
000001e0: 3f4f 073d 7a06 babe 6994 b03d 861f c73d
000001f0: 970b 51bb f27a b3be 47e9 063e 4608 65be
-0.20683755 -0.26094788 -0.27973816 -0.12005313 0.14168134 0.12578113 0.17498884 0.014534752
-0.02320014 0.16043732 -0.018511996 -0.01742464 -0.0833246 0.09495419 0.09758267 0.051993825
0.16244853 -0.17879583 0.112379014 -0.09624589 0.3055279 0.13752384 0.16096857 0.15794975
0.21421772 0.018136274 -0.0355823 0.3616659 0.08250115 0.10266283 -0.005733129 -0.040401205
0.2577935 -0.1783081 -0.05039978 0.21477441 0.06135484 0.017511629 -0.5728491 0.19069156
-0.050208703 0.052515034 -0.39816418 -0.3441052 0.33361772 0.30478287 0.31904197 -0.43120393
0.09703674 0.11795348 -0.11708182 -0.3523475 -0.58692336 0.113540694 -0.025103457 0.084052905
-0.01991284 0.36927366 -0.11412133 0.0032163365 -0.20645648 0.3611534 0.09099114 -0.3853018
0.06708975 -0.08794021 0.08906519 -0.16834563 0.13538137 0.12681964 0.16032244 0.017328195
-0.24008875 -0.28963915 0.15375999 0.17338198 -0.12954515 -0.08491189 -0.06491749 -0.2239528
-0.18850149 -0.18069896 0.0415911 0.22950503 0.15233767 -0.017201297 -0.29852664 -0.16647002
0.11990994 0.059319787 -0.076553725 -0.025429301 -0.027091544 -0.16310687 -0.46798807 0.43528304
-0.20517495 0.48947877 0.35124582 -0.16081311 0.12315315 -0.3606273 0.33527568 0.18968682
0.03352518 0.115426004 0.2719158 -0.13207893 -0.23501688 -0.008436022 -0.06546136 0.34116966
0.09932608 0.4186082 -0.014013488 0.1575479 0.04758142 -0.4208867 0.23278987 -0.05002711
0.03303456 -0.36333066 0.08622057 0.097228095 -0.0031897777 -0.35054737 0.13174926 -0.22366437

fc3.bias f4 [4]
00000000: 1919 773d 7e2f b5bc 7648 d43e fd39 903d
0.06032667 -0.022117373 0.41461533 0.070423104
