ckpts/LunarLander-v2/TRPO/20/critic.pth (torch, 7319 bytes, 5 tensors)

fc1.weight f4 [32, 8]
0	0x3d74cead	0.059767414
1	0x3e5ea0e2	0.2174106
2	0x3eb1161c	0.3458718
3	0xbcfd517d	-0.030922646
4	0xbbac5fd2	-0.005260446
5	0xbe311398	-0.1729263
6	0xbe9f393e	-0.3109836
7	0x3da5dcae	0.08098732
8	0xbe7e6446	-0.24842939
9	0x3de24345	0.11047987
10	0x3c6fbee4	0.014632914
11	0x3eae2088	0.34009194
12	0xbdd15554	-0.10221353
13	0x3d7c6e87	0.061628845
14	0x3e60ba73	0.21946125
15	0x3e48cdb2	0.19609717
16	0xbe9411ff	-0.2891998
17	0xbe0888fe	-0.13333508
18	0xbd8818fe	-0.06645392
19	0x3e43e613	0.19130735
20	0x3e4fd408	0.20295727
21	0xbd5d1f09	-0.053984676
22	0x3e76ea2b	0.24112765
23	0xbe9fa3e1	-0.31179717
24	0xbdc9aeb6	-0.098477766
25	0xbe190150	-0.14941907
26	0x3e9f51e9	0.3111718
27	0xbe9948e6	-0.2993843
28	0x3e686d8d	0.2269804
29	0xbcf25d30	-0.02958545
30	0x3d0d1632	0.034444995
31	0xbe5ad46f	-0.213701
32	0xbdd82d26	-0.105554864
33	0x3dac0373	0.083990954
34	0xbeb3b2e3	-0.35097417
35	0xbdf5d556	-0.12003581
36	0xbe90746b	-0.2821382
37	0x3e0f6cb0	0.14006305
38	0x3e5c4c00	0.21513367
39	0x3e82713e	0.25477022
40	0x3e730f46	0.23736295
41	0xbe7e8157	-0.24854027
42	0xbea1fad5	-0.31636682
43	0x3ead2166	0.33814543
44	0xbea5f482	-0.32413107
45	0x3e39bea7	0.18139134
46	0xbea1af3a	-0.31579
47	0xbda57d1e	-0.08080505
48	0xbe006d78	-0.12541759
49	0x3e94c753	0.29058322
50	0x3e8b03d5	0.2715136
51	0x3c655d15	0.013999243
52	0xbeb0b328	-0.34511685
53	0x3eac72cc	0.33681333
54	0x3eadf506	0.33976
55	0x3b188267	0.0023271085
56	0xbc22dd4a	-0.009940455
57	0x3e489a76	0.19590172
58	0xbe5589f6	-0.20853409
59	0xbe119c23	-0.14219718
60	0xbe503462	-0.20332482
61	0xbb96abab	-0.004598101
62	0xbd735621	-0.05940831
63	0xbdebee68	-0.11520082
64	0x3d09d64e	0.033651643
65	0x3b31b031	0.0027113075
66	0x3e9bda7b	0.30440125
67	0x3e5f9c2e	0.21836922
68	0x3e823dce	0.25437778
69	0x3e767b16	0.24070391
70	0x3e37ef0e	0.17962286
71	0x3c07f0e0	0.008297175
72	0xbe54d021	-0.2078252
73	0x3e82aac9	0.25520924
74	0xbea2e111	-0.31812337
75	0x3e363d76	0.17796883
76	0x3e93c7ff	0.28863522
77	0xbe1f1c59	-0.15538158
78	0x3e040b55	0.12894948
79	0xbeafe98f	-0.3435788
80	0xbe2cfcea	-0.16893354
81	0xbe2b9c2e	-0.16758797
82	0x3d0dcbdc	0.034618244
83	0x3de7af2f	0.113127105
84	0xbe40a1fe	-0.18811795
85	0x3de1f036	0.11032145
86	0xbe1c2e2d	-0.1525199
87	0x3e913dde	0.28367513
88	0x3ea403fa	0.32034284
89	0xbcb07b96	-0.021543305
90	0x3e06c434	0.13160783
91	0xbe71742a	-0.2357947
92	0xbe2d6d92	-0.16936329
93	0x3d677be6	0.056514643
94	0xbeb1156b	-0.34586653
95	0xbd41fe4a	-0.04736165
96	0x3e7cdb82	0.2469311
97	0xbd1f55c6	-0.03890016
98	0xbe82f51b	-0.25577626
99	0xbe9bc281	-0.30421832
100	0xbe13b00f	-0.1442263
101	0x3c449ea5	0.012000714
102	0x3e822854	0.25421393
103	0xbe99e5fd	-0.3005828
104	0xbe47d4e2	-0.19514802
105	0xbeab0a02	-0.33406073
106	0xbd3f611f	-0.04672348
107	0xbe83022c	-0.25587595
108	0xbe66c41e	-0.2253575
109	0xbe0bc776	-0.13650307
110	0xbe6a5be5	-0.22886617
111	0x3e6695a0	0.22518015
112	0x3e92612c	0.2858976
113	0x3e41aebe	0.18914315
114	0xbe6f7bc7	-0.23387061
115	0xbda224c5	-0.079171695
116	0xbda24b77	-0.0792455
117	0x3e6509e6	0.22367057
118	0xbdd63035	-0.104584135
119	0xbe1a235d	-0.15052553
120	0xbd00aa2f	-0.0314123
121	0xbe683421	-0.22676136
122	0xbdb1564a	-0.086590365
123	0xbe050511	-0.12990214
124	0xbe37c771	-0.17947175
125	0xbe5421e7	-0.20716058
126	0x3e465173	0.19367008
127	0x3e0ab8d3	0.13547067
128	0xbe2e2081	-0.17004587
129	0x3e806beb	0.25082335
130	0xbe8794b9	-0.26480654
131	0xbd4f94f7	-0.050679173
132	0xbe8fcfed	-0.28088322
133	0xbc844cbc	-0.016149871
134	0xbea8019d	-0.3281373
135	0x3eb1b32c	0.3470701
136	0xbe158c12	-0.14604214
137	0x3e8e7f7b	0.27831635
138	0x3e3c1005	0.18365486
139	0x3ea87d78	0.32908225
140	0xbe5dcdee	-0.21660587
141	0x3eb3e98b	0.35139117
142	0xbd9a9743	-0.07548382
143	0xbbcf7441	-0.006330997
144	0x3dc731b1	0.09726275
145	0x3e9ecee5	0.31017223
146	0xbe8e2024	-0.27758896
147	0x3e72db74	0.23716527
148	0x3e9e86c9	0.30962208
149	0xbe7e884d	-0.24856682
150	0xbd8a8ff6	-0.067657396
151	0x3b40149f	0.0029309166
152	0x3e9e736a	0.3094743
153	0xbeb21e78	-0.3478887
154	0xbdead79b	-0.11466905
155	0xbe973661	-0.29533675
156	0x3d9980f3	0.07495298
157	0x3e40e202	0.18836215
158	0x3e7f2c0a	0.24919143
159	0xbdd3fde1	-0.10351158
160	0xbe7f4229	-0.24927582
161	0xbd6f8361	-0.058474902
162	0x3de4bf23	0.11169269
163	0xbd14d402	-0.036335
164	0xbe7727c8	-0.24136269
165	0xbdcb9b8e	-0.09941779
166	0xbe4aa917	-0.19791065
167	0xbe88e090	-0.26733828
168	0x3e8c136e	0.27358574
169	0x3e60b3f7	0.21943651
170	0xbcfa003e	-0.030517694
171	0x3e4e4590	0.20143723
172	0x3e523840	0.2052927
173	0x3e1b46f1	0.15163781
174	0xbdd8a4ec	-0.10578331
175	0x3e983c1f	0.2973337
176	0xbb656f5a	-0.0035008998
177	0x3e04a840	0.12954807
178	0xbe8f38b6	-0.27972955
179	0x3d4227df	0.047401305
180	0x3e9861bf	0.29762074
181	0x3d71ca6c	0.059030935
182	0x3dc7326a	0.097264126
183	0x3e8daa65	0.27669063
184	0x3e28ab32	0.16471556
185	0x3e0d3774	0.13790685
186	0x3ca20d06	0.0197816
187	0xbd83c60c	-0.06434259
188	0xbe003cb8	-0.12523162
189	0xbe535638	-0.20638359
190	0x3eaab968	0.3334458
191	0xbe5d44ab	-0.21608226
192	0xbd5a4a21	-0.05329335
193	0xbe8fd2a4	-0.28090394
194	0xbe6ff347	-0.23432647
195	0xbe7066e8	-0.23476756
196	0xbe61b72d	-0.22042532
197	0xbe86f117	-0.26355812
198	0x3e8bb9bd	0.27290145
199	0xbe315f62	-0.17321542
200	0x3d713c88	0.058895618
201	0x3e4b00e7	0.19824563
202	0x3d0a5ea0	0.033781648
203	0x3e0572f1	0.13032128
204	0xbd46c275	-0.048525292
205	0xbe4dd9ed	-0.20102663
206	0x3eae8035	0.3408219
207	0x3e95e7a5	0.29278293
208	0x3d6e65b1	0.05820245
209	0xbc35487a	-0.011064643
210	0xbe458f29	-0.19292893
211	0xbe9ab09d	-0.3021287
212	0xbe436edf	-0.19085263
213	0x3eb271b7	0.34852383
214	0xbdfc89af	-0.123309486
215	0x3e86cc03	0.26327524
216	0xbde33503	-0.110940956
217	0xbe97d55e	-0.29654974
218	0xbe6a4bd4	-0.22880489
219	0xbe5dba50	-0.21653104
220	0x3eb02b93	0.34408244
221	0xbd84db08	-0.064870894
222	0x3e8e0073	0.27734718
223	0xbd94642f	-0.07245671
224	0xbe7f194d	-0.24911995
225	0x3e259326	0.16169414
226	0xbc8f2b03	-0.017476564
227	0x3dfd264c	0.1236082
228	0xbe20cd6e	-0.15703365
229	0x3e9e82fc	0.30959308
230	0x3eb3f1c5	0.35145393
231	0xbe2a0609	-0.16603865
232	0x3d198ac2	0.037485845
233	0xbe8067ce	-0.25079197
234	0x3eaec1d8	0.34132266
235	0x3d50b420	0.05095303
236	0x3cc61e3e	0.024184342
237	0xbe57ff00	-0.21093369
238	0x3ea142d3	0.31496295
239	0xbdb9dc6e	-0.09075247
240	0x3e1f3708	0.15548337
241	0xbd839a93	-0.06425967
242	0x3e868b9d	0.2627839
243	0xbea6615e	-0.3249616
244	0x3e9536ff	0.2914352
245	0x3e6579c6	0.22409734
246	0xbdd0bbe4	-0.10192087
247	0xbe82153a	-0.2540682
248	0x3d9b80fb	0.075929604
249	0xbe183568	-0.14864123
250	0xbe6aaf15	-0.22918351
251	0xbd81bb91	-0.063346036
252	0xbe135a29	-0.14389862
253	0x3da7253b	0.08161398
254	0xbdbee349	-0.09320695
255	0xbde1a70e	-0.11018191

fc1.bias f4 [32]
0	0x3e3fa1e5	0.18714102
1	0xbd16cfaa	-0.036819138
2	0x3cd745e0	0.026278436
3	0xbe4fe5b1	-0.20302464
4	0x3da3c96a	0.07997401
5	0x3dfb6dc4	0.122767955
6	0x3e1373cc	0.14399642
7	0xbd4de6d1	-0.05026895
8	0x3ea7abb8	0.32748199
9	0xbe9f8fac	-0.311643
10	0xbda64ac6	-0.08119731
11	0x3e84bc73	0.25925025
12	0x3e9605c3	0.2930127
13	0x3e8d9104	0.276497
14	0xbcd2fffc	-0.025756828
15	0xbe4d1528	-0.20027602
16	0x3e19bccc	0.15013427
17	0xbdb917ad	-0.09037719
18	0x3e1346b1	0.14382435
19	0x3e30b3a5	0.17256029
20	0xbe53f5a6	-0.20699176
21	0xbe0a9eee	-0.1353719
22	0xbd1e24bf	-0.038609263
23	0x3dd51797	0.1040489
24	0xbe504740	-0.2033968
25	0xbd90fa1a	-0.07078953
26	0xbe8c1554	-0.27360022
27	0xbe28aa51	-0.1647122
28	0x3c46c2ea	0.012131432
29	0x3ca1bcf4	0.01974342
30	0xbe0bbfbd	-0.13647361
31	0x3eac0d63	0.33603963

fc2.weight f4 [32, 32]
0	0xbe12066d	-0.14260264
1	0xbca35ae8	-0.019940808
2	0xbe1996ac	-0.14998883
3	0xbcb9e67e	-0.022692915
4	0xbd1c223f	-0.038118597
5	0xbde06b1b	-0.10957929
6	0x3e274262	0.16333917
7	0x3c843171	0.016136857
8	0x3cb26463	0.021776384
9	0xbe258a55	-0.1616605
10	0x3c24aa9b	0.010050441
11	0x3ab87f13	0.0014075957
12	0x3e09ec2c	0.13468999
13	0xbe373cca	-0.17894283
14	0x3d772e3b	0.060346823
15	0x3d8360dc	0.06414959
16	0x3de5539b	0.11197587
17	0x3ba2630d	0.0049556554
18	0xbe053a58	-0.13010538
19	0xbe07ef72	-0.13274935
20	0x3d4d4a89	0.05011991
21	0xbd8a3436	-0.0674824
22	0xbdb79b9b	-0.08965226
23	0xbe314ea2	-0.17315152
24	0x3e1e1203	0.15436558
25	0x3e0a2cd0	0.13493657
26	0xbca676ea	-0.020320375
27	0xbe125880	-0.14291573
28	0xbd35734f	-0.04429942
29	0xbdf7725c	-0.12082359
30	0xbd9fb029	-0.07797272
31	0x3c1e13dd	0.00964829
32	0xbbc0c218	-0.005882513
33	0x3dbae1d6	0.09125106
34	0xbd9dd46c	-0.07706532
35	0x3cf23a02	0.029568676
36	0x3e2e6e11	0.17034175
37	0xbd90c60b	-0.07069024
38	0x3d2c72b5	0.04210158
39	0xbd4aecb6	-0.04954215
40	0x3e08d1c2	0.13361266
41	0x3db60389	0.08887393
42	0xbc7f86e0	-0.015596122
43	0xbe200616	-0.15627322
44	0x3e1be69e	0.15224692
45	0x3d695269	0.056963358
46	0x3df5b985	0.11998276
47	0xbd615717	-0.055014696
48	0x3dbfbfef	0.0936278
49	0x3d84dd8a	0.06487568
50	0x3d8d67bb	0.06904551
51	0x3b86763f	0.0041034515
52	0x3e2ef349	0.17084993
53	0xbe06c810	-0.13162255
54	0xbe2ceb5e	-0.1688666
55	0xbe07b684	-0.13253218
56	0x3dd62220	0.104557276
57	0xbbb85f2f	-0.005626581
58	0xbd4f6dd6	-0.050641857
59	0x3dca8fd9	0.09890718
60	0x3e219ce9	0.15782513
61	0xbde60a30	-0.11232412
62	0xbdf74046	-0.12072806
63	0xbce2063f	-0.027590869
64	0x3e2a3d5a	0.16624966
65	0x3dfed5a2	0.12443091
66	0xbce98aaa	-0.028508503
67	0xbe178a0c	-0.14798754
68	0xbcde0120	-0.027100146
69	0x3e12cf33	0.14336853
70	0x3e0886f1	0.13332726
71	0xbe2dd03c	-0.16973966
72	0xbdf17f75	-0.117918886
73	0x3e272217	0.16321598
74	0xbdeffd6e	-0.1171826
75	0x3d9277a9	0.071517296
76	0x3dd58c18	0.104271114
77	0xbe10551c	-0.14094967
78	0xbe0f9ff6	-0.14025864
79	0xbda32fa1	-0.07968069
80	0xbd317941	-0.043328527
81	0x3bd0217a	0.006351647
82	0x3dba3726	0.0909255
83	0x3e2e30fd	0.17010875
84	0xbe24278d	-0.16030712
85	0xbd6bfb58	-0.057612747
86	0xbe0629a6	-0.13101825
87	0xbded3eeb	-0.11584266
88	0x3e071aad	0.1319377
89	0xbdfa8f6a	-0.12234385
90	0x3e057532	0.13032988
91	0xbdd3c89c	-0.103409976
92	0x3d50e24e	0.05099707
93	0xbe1845a8	-0.14870322
94	0x3e1530b4	0.1456936
95	0xbdf8ed76	-0.12154667
96	0xbe002f77	-0.12518106
97	0xbd23c7eb	-0.03998558
98	0x3e225644	0.1585322
99	0xbde0fb05	-0.10985378
100	0xbbd204b4	-0.006409252
101	0x3d4ffff0	0.05078119
102	0xbbf08b84	-0.0073408503
103	0x3dc843f3	0.09778585
104	0x3d8b876d	0.0681294
105	0x3c834881	0.016025783
106	0x3e097c7e	0.13426396
107	0xbd0756d2	-0.033041783
108	0xbcc9c924	-0.024632044
109	0x3e09fa4a	0.13474384
110	0x3dc85d76	0.09783451
111	0x3dca5f98	0.09881514
112	0x3e0c89c5	0.1372443
113	0x3d8a76d1	0.06760944
114	0x3d4d0573	0.050054025
115	0x3b8fc90a	0.0043879794
116	0xbd9bd830	-0.07609594
117	0xbda9df42	-0.08294536
118	0x3d579069	0.052627955
119	0xbdcf322a	-0.1011699
120	0x3d6d86d0	0.057989895
121	0xbdcf6f04	-0.101285964
122	0x3d66c637	0.056341376
123	0x3db30a1a	0.08742161
124	0xbb07d1ad	-0.0020724342
125	0xbd9789ea	-0.07399352
126	0xbdb8ff4d	-0.0903307
127	0x3db3eec4	0.08785775
128	0x3cec5c3d	0.028852576
129	0xbcfa84d1	-0.03058091
130	0x3debd3a1	0.115149744
131	0x3d850d03	0.064966224
132	0x3cb28d2a	0.021795828
133	0xbd803036	-0.062591955
134	0xbdaa952f	-0.08329236
135	0xbdb81379	-0.08988089
136	0x3d842fc3	0.06454422
137	0xbda74d19	-0.08169002
138	0x3dedea63	0.11616971
139	0x3e0aea30	0.13565898
140	0x3db5ab74	0.08870593
141	0x3d5786f9	0.052618954
142	0xbe036713	-0.12832288
143	0xbd420ca3	-0.047375333
144	0xbc9cf04c	-0.019157551
145	0x3e1cbc7c	0.15306276
146	0xbd790a9e	-0.06080114
147	0x3c095292	0.008381503
148	0x3ca53ead	0.020171488
149	0xbdf37f27	-0.11889487
150	0x3d325770	0.04354042
151	0xbda90ead	-0.08254752
152	0xbbbf09b1	-0.0058300127
153	0x3e0a1222	0.1348348
154	0x3d974150	0.07385504
155	0x3dacc0a1	0.084351785
156	0x3c923345	0.017846713
157	0xbd81b794	-0.06333843
158	0x3d8e991b	0.06962796
159	0x3d2f59eb	0.04281036
160	0x3e14d12b	0.14532916
161	0xbe099f82	-0.13439754
162	0x3cb099fd	0.021557802
163	0x3a8c2e6e	0.001069499
164	0x3ddcac8d	0.10775099
165	0xbcbcc131	-0.02304134
166	0xbdb56021	-0.08856226
167	0xbe1afbcb	-0.15135114
168	0x3d2ef75b	0.042716365
169	0xbc990a24	-0.018681593
170	0x3d97ba91	0.074086316
171	0x3e0d0c06	0.13774118
172	0xbe0a4d3b	-0.13506024
173	0x3dde9a86	0.10869317
174	0x3c6596c2	0.014012994
175	0xbe06f2e0	-0.13178587
176	0xbdc38bb2	-0.09548129
177	0x3e0328d6	0.12808546
178	0x3ddfe08a	0.10931499
179	0xbd991875	-0.07475368
180	0xbd631e8b	-0.05544905
181	0x3e2c2aac	0.16813153
182	0xbe11e34b	-0.14246862
183	0xbe12b91e	-0.14328429
184	0xbe0e9204	-0.13922888
185	0x3d09c5aa	0.033635773
186	0xbdd583fa	-0.10425563
187	0x3e041044	0.1289683
188	0x3e345863	0.17611842
189	0xbdfd5940	-0.12370539
190	0x3dfb5ec3	0.12273934
191	0x3d910aaf	0.07082116
192	0xbde96bc6	-0.11397509
193	0xbe2c83ee	-0.16847202
194	0x3d31bb93	0.043391775
195	0xbdec13ba	-0.115272
196	0x3d06d7ff	0.032920834
197	0x3e2d88cb	0.16946714
198	0xbdc393e4	-0.09549692
199	0x3da370c2	0.07980491
200	0x3b55cb63	0.0032622449
201	0xbe28bd4a	-0.16478458
202	0x3dbecca9	0.093163796
203	0xbd9a5fa0	-0.0753777
204	0xbdc2a12f	-0.095033996
205	0xbd7ea6c0	-0.062170744
206	0x3e17505e	0.14776751
207	0xbdc9b82b	-0.098495804
208	0x3d88b96f	0.06675994
209	0xbdd141b4	-0.1021761
210	0x3e1a2aab	0.15055339
211	0xbd9a60b8	-0.07537979
212	0xbe0e5e1d	-0.13903089
213	0xbdd63ec8	-0.10461193
214	0xbe153cf2	-0.1457403
215	0xbcc25221	-0.023720803
216	0x3d5f7381	0.054553512
217	0x3e1209b4	0.14261514
218	0xbce0c676	-0.027438384
219	0x3d9ef361	0.077612646
220	0xbda53db8	-0.080684125
221	0xbe0fb732	-0.14034727
222	0xbe048139	-0.1293992
223	0x3e01950b	0.12654512
224	0xbe206181	-0.15662195
225	0xbe27a2d3	-0.16370706
226	0xbe366541	-0.17812063
227	0xbe339a30	-0.17539287
228	0x3c97c77d	0.01852774
229	0x3de2425b	0.110478126
230	0x3d0d61b1	0.034516994
231	0x3c7b445f	0.015336125
232	0x3e363726	0.17794475
233	0x3b79adfd	0.003809809
234	0xbe21daa8	-0.15806067
235	0xbdeefc2d	-0.116691925
236	0xbdfd6ff6	-0.123748705
237	0xbe078992	-0.13236073
238	0xbd280939	-0.04102442
239	0xbd66d82a	-0.056358494
240	0x3defe47c	0.11713502
241	0xbe2ded61	-0.16985084
242	0xbe056241	-0.13025762
243	0x3df2fc32	0.11864509
244	0xbe29decd	-0.16588898
245	0x3bbc14bd	0.005739777
246	0x3d95e320	0.07318711
247	0xbd571796	-0.052512728
248	0x3d9a7833	0.075424574
249	0xbe215655	-0.1575559
250	0x3cefc32f	0.029267875
251	0xbdff9234	-0.12479058
252	0x3db7f45d	0.089821555
253	0xbe0e7476	-0.13911614
254	0x3e29a257	0.16565834
255	0xbd41f49e	-0.047352426

fc2.bias f4 [32]
0	0x3e17a4f4	0.14809018
1	0x3db1e287	0.08685785
2	0xbda79e05	-0.08184437
3	0x3b837400	0.004011631
4	0xbe18fbba	-0.14939776
5	0x3e0be204	0.13660437
6	0x3dc342e9	0.095342465
7	0xbc21c1b5	-0.0098728435
8	0x3d8403ec	0.064460605
9	0xbdb3645a	-0.08759375
10	0xbb2cb9c1	-0.0026355835
11	0x3dd643a6	0.10462122
12	0xbdb03a72	-0.086048976
13	0xbe04a3de	-0.12953135
14	0xbdbbc397	-0.09168165
15	0xbd607fc8	-0.05480936
16	0xbdd663ba	-0.1046824
17	0x3d82c0c7	0.063844256
18	0xbd21c94e	-0.03949862
19	0xbd9458dd	-0.07243512
20	0xbcd5ed16	-0.026114028
21	0xbcca60ab	-0.024704298
22	0xbd93c49d	-0.072152354
23	0x3e0d79fa	0.13816062
24	0xbe141f81	-0.14465143
25	0x3df885b6	0.12134878
26	0x3e24f4ac	0.1610896
27	0xbd3c8592	-0.04602582
28	0xbc4e2eb9	-0.012584382
29	0x3ca37abf	0.01995599
30	0xbe082327	-0.1329466
31	0xbd8da622	-0.06916453

fc3.weight f4 [1, 32]
0	0x3de200a3	0.11035278
1	0x3cffba75	0.03121684
2	0xbd462c06	-0.048381828
3	0xbdd14fed	-0.10220323
4	0x3e32f753	0.17477159
5	0xbe158107	-0.14600001
6	0xbd2a6dfb	-0.04160879
7	0xbe1ec4a5	-0.15504701
8	0xbddc5b83	-0.10759642
9	0xbe1d9b8f	-0.15391372
10	0xbe007fa4	-0.12548691
11	0x3e163e5b	0.14672224
12	0xbc6a711a	-0.014309192
13	0xbdfcdb46	-0.123465106
14	0x3e1ceae5	0.1532398
15	0xbdb1b6d8	-0.08677453
16	0xbd6b56bd	-0.057455767
17	0xbe137aeb	-0.14402358
18	0x3cfac757	0.03061263
19	0x3dba108b	0.090851866
20	0xbc0958f4	-0.0083830245
21	0xbe0abb93	-0.13548116
22	0xbe1f65e4	-0.15566212
23	0xbde2d7f7	-0.11076348
24	0x3e1bdc28	0.15220702
25	0xbd2a8207	-0.04162791
26	0x3d92daa3	0.07170608
27	0x3daf051b	0.08545896
28	0x3c55031a	0.013001228
29	0x3e1edfd7	0.15515076
30	0xbe044e5f	-0.12920521
31	0x3d19951a	0.03749571
