ckpts/LunarLander-v2/TRPO/10/actor.pth (torch, 7703 bytes, 6 tensors)

fc1.weight f4 [32, 8]
000000 29 3b 85 3b 94 2d 80 3e 4f 34 15 3e ec 07 1e 3f
       0.0040658903 0.25034773 0.14570735 0.6173084
000010 b2 49 ec be fd 07 0c 3e 28 0e 7c 3e 10 30 20 3e
       -0.46149975 0.13674922 0.24614775 0.15643334
000020 0f b0 80 bd 0e 60 bd bc 9e b7 8e bd 12 2d df bd
       -0.062835805 -0.023117092 -0.06968616 -0.10897268
000030 90 c6 38 3e c8 ab 96 3d b6 15 30 3e 3b e1 d5 3e
       0.18044496 0.073569834 0.17195782 0.417734
000040 64 4f 5e bd 17 69 e3 bd 4c d9 3c 3e 5a 6b 20 bd
       -0.05427493 -0.11104029 0.18442267 -0.03916488
000050 42 e1 a3 3d 67 37 ce be b6 fd a6 be 1c 60 ab be
       0.08001949 -0.40276644 -0.3261544 -0.33471763
000060 5b 27 bf be d1 77 02 bf fc 00 c6 be 70 8f 23 bf
       -0.37334713 -0.50964075 -0.38672626 -0.63890743
000070 49 12 6f be d0 44 a2 3c bf 22 62 3d 3c 3f 66 3e
       -0.23346819 0.019808203 0.055208918 0.2248506
000080 1c 6a ea bd e0 bc c9 bd 04 50 a2 be eb 25 05 bf
       -0.1144602 -0.09850478 -0.31701672 -0.52010983
000090 f4 7b 47 3f 33 33 3d 3e e6 cc 45 3e 66 b4 a9 3e
       0.7792351 0.18476562 0.19316444 0.33145446
0000a0 00 48 1d 3e 62 ee 8b 3e 2b d1 29 be 78 c2 46 be
       0.15359497 0.2733031 -0.16583697 -0.19410121
0000b0 66 25 88 3d 0d 3a 02 3e 9d 91 0c 3e 92 3e b0 3e
       0.06647758 0.12717457 0.13727422 0.34422737
0000c0 0f 76 98 be 5e 9e ed 3d cf bf 0e 3d 56 95 b9 3f
       -0.29777572 0.11602472 0.03485089 1.4498699
0000d0 b6 69 a7 be 1b a4 11 3e 4e bf fd bd 3f 70 15 be
       -0.3269784 0.14222758 -0.12390004 -0.145936
0000e0 44 9f eb 3e 86 12 b0 be 58 7a b4 3f d9 3e 9f 3f
       0.46019948 -0.34389132 1.4099836 1.2441055
0000f0 c0 ce ba bf 90 6b 61 bf 8f 85 a5 3e f0 1b b5 be
       -1.4594345 -0.8805475 0.3232846 -0.35372877
000100 42 35 c6 3e 1f f9 15 bf 70 48 20 3f aa d8 11 bf
       0.38712507 -0.58583254 0.6261053 -0.5697123
000110 e8 4d 2a bf 02 67 2e 3d a8 0b c1 3e 43 b4 81 be
       -0.66525126 0.042578705 0.37704206 -0.2533284
000120 a4 e6 e3 bc 3c ff 1b bd 4e 2a 4a bc 2c 1d fb bd
       -0.027819939 -0.038085207 -0.012339188 -0.122614235
000130 e2 31 ec be f1 82 2d be ff be 21 be b6 10 a8 be
       -0.46131808 -0.16944481 -0.15795515 -0.3282525
000140 5d 9e f2 be 24 4d 3f be b4 b7 1c be 00 1e 77 be
       -0.47386447 -0.1868177 -0.15304452 -0.24132538
000150 78 fa 4e 3f b2 bc a3 3e 7c d8 12 bd 34 db 1b 3f
       0.80850935 0.319799 -0.035850987 0.6088135
000160 64 7a 13 bf 22 3f 82 3f 40 e7 b6 be 82 01 b8 3f
       -0.5760863 1.0175517 -0.35723305 1.437546
000170 0e 3e 07 3f ba b4 a7 3e e6 d7 e9 bd a2 f5 b8 3c
       0.5282906 0.3275507 -0.114181325 0.022578064
000180 96 4f 92 be b0 77 57 3e 7c 41 e9 be 04 4f 8a be
       -0.28576344 0.21041751 -0.45557773 -0.2701341
000190 7a 49 89 3e 86 45 df 3e 38 c6 32 3e fd 74 83 3b
       0.2681387 0.4360773 0.17458427 0.004011749
0001a0 06 88 f1 bd 0e c1 b9 3e 7c 97 f1 3e 5c ac 0b 3f
       -0.117935225 0.36280102 0.47185886 0.54559875
0001b0 12 a3 db be 48 28 9b bc cc 33 8b 3e 81 f6 0d 3d
       -0.4289785 -0.018940106 0.27187955 0.034658913
0001c0 06 6f c9 3e fc 2b 83 bf a2 99 17 3f ea de 42 bf
       0.39342517 -1.0247798 0.592188 -0.7612139
0001d0 36 88 1d bf b8 0f 24 bf a6 55 16 be 90 9f 32 3e
       -0.61535966 -0.64086485 -0.1468111 0.17443681
0001e0 85 21 92 bc 6c e8 88 bd f3 7f 5b bf 50 cb 2d bf
       -0.017838249 -0.06684956 -0.8574211 -0.67888355
0001f0 b9 0e 47 3f 40 2d 87 3e b5 17 af be 88 a6 9b 3e
       0.7775684 0.2640171 -0.34197775 0.3040049
000200 30 16 2b be ba cd 8a 3e 20 1d ce 3d ea 39 ce 3e
       -0.16707683 0.27110082 0.10064149 0.4027856
000210 16 17 b8 bc 00 b3 a9 3d 4d 10 91 be 98 24 ca be
       -0.022471946 0.08286095 -0.2833275 -0.39481044
000220 26 4a 0e 3e 58 4b 34 3e 50 49 6e be ca f4 ce be
       0.13895473 0.17606866 -0.23270154 -0.40421134
000230 f8 be 71 be 8a 5d a2 3e 14 69 66 3e f1 41 92 be
       -0.23608005 0.3171199 0.22501022 -0.28565934
000240 f4 6b fa 3d c1 9a 06 be 50 00 c7 3e a6 4e 8a be
       0.12227622 -0.13144971 0.38867426 -0.2701313
000250 7e dc 70 bc 92 3c a2 be 2f b7 69 be b0 c6 2b 3e
       -0.014701007 -0.31686836 -0.22823785 0.16775012
000260 68 4a 14 bf 54 ff df 3e a4 ce 86 bf ca f2 82 bf
       -0.57926035 0.43749487 -1.0531812 -1.0230343
000270 f0 25 8d 3f 94 15 5d 3f 30 16 d6 ba f2 84 95 3e
       1.1027203 0.8636105 -0.0016333517 0.29202992
000280 a0 7c 6c 3d aa 32 7a bf 30 4b 50 3f 24 bc e8 be
       0.05773604 -0.9773356 0.8136473 -0.4545604
000290 f1 bc 47 bf aa b1 bd be 26 2c 9a be 00 07 53 be
       -0.78022677 -0.3704961 -0.30111808 -0.20608139
0002a0 2a 3f 5e be 51 3f 4b 3f a4 48 2b be 5a 6e 00 3f
       -0.21703783 0.7939349 -0.16726929 0.50168383
0002b0 f4 23 47 bf 62 c4 40 bf 14 88 d3 3e 20 c6 19 bf
       -0.77789235 -0.75299656 0.41314757 -0.6006794
0002c0 74 d8 c4 3d 20 25 d6 be b4 c3 12 3e c0 87 a2 be
       0.09611598 -0.418252 0.14332467 -0.31744194
0002d0 fe 67 4f bd 9e aa 41 be 76 34 de 3e 92 77 f6 3e
       -0.050636284 -0.18912742 0.433994 0.481381
0002e0 58 64 cd be ec 22 4d 3f 76 fd 18 bf 2f 59 7c 3f
       -0.4011562 0.8013141 -0.5976175 0.98573583
0002f0 6e d5 16 3f 8a 3f c1 3f be de 08 3f a0 fe 1b 3e
       0.5891942 1.5097516 0.5346488 0.1523385
000300 0f 3f dc bd 11 43 31 bf b6 79 1f 3e ee ab 6c bf
       -0.10754215 -0.6924296 0.15573773 -0.92449844
000310 74 15 33 bd 52 c6 24 be ca 09 64 be 34 76 95 3b
       -0.04372163 -0.16091278 -0.22269359 0.00456121
000320 cc 46 12 be 01 bf a4 3e 7e 8d c4 3e f0 86 17 3f
       -0.1428482 0.32176974 0.383892 0.59190273
000330 f1 20 7e be 7e b8 6f be 6b 55 62 3e 3d 77 02 bf
       -0.24817254 -0.23410222 0.22102897 -0.50963193
000340 5e a0 ce 3d 16 09 36 bf b4 9b 57 3f b2 8d 01 bf
       0.10089181 -0.71107614 0.8422196 -0.50606835
000350 8c 37 3e bf 24 23 0e bf 88 a2 0e be 8e 2d bc bd
       -0.7430351 -0.5552237 -0.13929188 -0.09188376
000360 bc ed 05 bd 54 df c7 3e 38 76 e4 be e2 0e 0f 3c
       -0.032697424 0.39037573 -0.44621444 0.008731576
000370 14 c7 ea 3e ee 94 9e 3e d6 05 63 be a3 a5 fb 3d
       0.4585501 0.30973 -0.22170195 0.12287452
000380 18 74 0a be 46 59 ae 3e 48 e8 b6 3d a1 26 0f 3f
       -0.13520849 0.34052485 0.08931023 0.5591832
000390 3e d5 a3 3e 46 09 e6 3e 8e 43 0b bc f6 25 73 be
       0.31998628 0.4492895 -0.008499993 -0.2374495
0003a0 42 52 9f bb 2e 42 9a 3e c4 8e 43 3d 7e 7b 19 3e
       -0.004862101 0.30128616 0.047743574 0.14988515
0003b0 f4 27 59 3e d5 4c 6c 3e 76 12 28 3e 8e b5 b2 3e
       0.21206647 0.23076184 0.16413292 0.3490414
0003c0 70 37 ba bd 5a 21 f3 3d de e5 ef 3e 60 7e 20 3f
       -0.09092605 0.11871596 0.46855062 0.6269283
0003d0 0c 1c ca be d0 10 dd bd 6e 44 2e 3e 60 b6 ce be
       -0.39474523 -0.10794222 0.17018291 -0.40373516
0003e0 c0 c8 dc be 04 97 79 3f 7c 7e 35 bf 52 20 e4 3e
       -0.4312191 0.97496057 -0.70896125 0.44555908
0003f0 28 d1 52 3f cb 81 31 3f ca a5 6c be 5a 3b 58 3e
       0.823504 0.69338673 -0.23110119 0.21116391

fc1.bias f4 [32]
000000 26 90 1d be 58 c6 7f 3e 8e ba 04 3c cc bf 92 be
       -0.1538702 0.24978006 0.008101119 -0.28661954
000010 34 d3 6e be 42 47 54 be 70 47 47 3d c6 a1 7e 3e
       -0.23322755 -0.20730308 0.048652112 0.24866399
000020 b6 58 8b be 0a c6 0a 3e f2 4d 1b be 81 53 90 3e
       -0.2721612 0.13552108 -0.15166453 0.28188708
000030 78 42 b3 be 48 1b 5f bc 10 5e 99 3e 00 aa 98 bb
       -0.3501165 -0.013617344 0.29954576 -0.0046589375
000040 01 cf fb bd 4a 2a 61 bd 62 43 0d 3d 04 43 b8 be
       -0.12295342 -0.05497197 0.03448809 -0.3598863
000050 56 5a c3 3e ca bc fd 3e b3 ab 14 bd 54 c8 7c 3e
       0.38154858 0.49558097 -0.036296558 0.24685794
000060 87 d3 00 3d cc af ac 3e 8a c1 9c 3d 22 99 93 be
       0.03145173 0.33727872 0.07654102 -0.2882777
000070 c6 f6 6d 3e 74 34 09 3e 78 01 28 3e 8c 70 e5 be
       0.23238668 0.13398916 0.1640681 -0.4481243

fc2.weight f4 [32, 32]
000000 88 e7 5c 3d e2 c3 1c 3e 38 1e e4 bc 0d 38 83 be
       0.053931743 0.15309098 -0.02784644 -0.256287
000010 d0 67 4b be 9a e4 94 3c 48 7a 3f 3e 4a 9c 15 3d
       -0.1986382 0.018175412 0.1869899 0.036526002
000020 1a 97 b8 bd 7e a5 73 3c 15 21 fe 3d 1e 77 ce 3e
       -0.09013195 0.014870999 0.12408654 0.40325254
000030 5c 7e aa 3c c4 3f a4 bd 3c 07 36 be 0e 5b a4 bd
       0.020812206 -0.08019975 -0.17776197 -0.0802518
000040 1c f0 2d 3e 3a 31 40 bc db b7 2f 3c 8c 96 cb 3d
       0.16986126 -0.0117304865 0.010724987 0.09940824
000050 43 f4 90 be 14 0c 4e 3d f2 3f 16 3d 00 28 51 3e
       -0.28311357 0.050304487 0.036682077 0.20425415
000060 9a 93 b3 bd 2a 55 40 3e 16 2a 4f bd 6c 42 17 bd
       -0.08768387 0.18782488 -0.050577246 -0.03692858
000070 ea da 4b 3e 54 7d 65 3d f0 ae b9 3d 52 e6 ab 3e
       0.19907728 0.056027725 0.0906657 0.33574158
000080 68 ad 24 3d 49 e5 48 be 7a 00 b3 3d 08 0e 3c be
       0.040204436 -0.19618715 0.08740325 -0.18364727
000090 be a3 e5 3d 4c 09 22 be 84 a8 da 3d 68 8b 21 be
       0.11212872 -0.15823859 0.10676673 -0.15775836
0000a0 a0 cb a8 3d 5e fe a9 3d e4 36 f9 3c 60 c5 d7 3d
       0.082419634 0.0830047 0.030421682 0.10535693
0000b0 6e 25 6e bb 5e a9 38 be 31 5c 12 be ee a7 2a 3e
       -0.0036338228 -0.18033358 -0.1429298 0.16665623
0000c0 ee 4a 4d 3d be f4 a1 bc a7 02 a1 3b bc 78 1a 3d
       0.050120287 -0.019770022 0.0049136463 0.037712798
0000d0 34 16 16 bd 66 9a 0e 3d 44 97 ed bd 50 33 ef 3c
       -0.03664227 0.034815215 -0.11601117 0.029199272
0000e0 b4 23 01 3d 23 c8 f5 3d 54 ef 41 3e 7c 76 48 3d
       0.03152819 0.12001064 0.18938953 0.04894112
0000f0 10 8d 6d 3d 9c 9d 3e be b6 06 ac bc de 09 0f be
       0.057995856 -0.1861481 -0.020999294 -0.13968608
000100 c2 c6 cd be 62 68 b1 3d 6e 43 fa 3d 4c 66 e0 3d
       -0.40190703 0.086624876 0.122198924 0.109570116
000110 95 d5 17 bc c5 77 0f be 36 18 fc be 74 c7 33 3d
       -0.0092672305 -0.14010532 -0.4923722 0.043891385
000120 0e b8 c2 3e b8 d5 61 3e 80 df 12 be 8e 1d 3e bf
       0.38031048 0.22054183 -0.14343071 -0.74263847
000130 bc 94 17 be c6 17 8a be d2 3f 2a 3f 12 79 cb 3d
       -0.14802831 -0.26971263 0.6650363 0.09935202
000140 e0 e9 20 be d8 0c 5d 3c 84 a2 66 3e 14 88 27 be
       -0.15714216 0.013491832 0.22522932 -0.16360503
000150 b5 0b 05 3f b6 0c 9a bd 0c 51 2e 3e 73 c1 58 bf
       0.5197099 -0.07521956 0.17023104 -0.8467018
000160 14 40 09 3f 72 0e ec 3c 6b de 00 3f cb 0f 91 be
       0.536134 0.028815482 0.5033938 -0.28332362
000170 cb dd bd be ce c8 97 be c0 c9 37 be 62 7b 07 bf
       -0.37083277 -0.2964539 -0.17948055 -0.5292264
000180 a0 f8 54 3d 83 15 09 3e ac 1e 5b 3d fc 61 ea 3d
       0.05199492 0.13387112 0.053496048 0.1144447
000190 e1 50 62 3e b2 99 a3 bc 5c 56 4f be ec bc cf be
       0.22101165 -0.019970749 -0.20247787 -0.40573823
0001a0 56 7c aa 3d c7 2e f7 3b 03 56 11 3e 2a 2d 13 be
       0.083244964 0.007543418 0.14192967 -0.14372697
0001b0 2d bd 54 3e 7e 07 2f be cc 05 1e 3e 7e 50 5e 3e
       0.2077529 -0.17092702 0.15431899 0.21710393
0001c0 30 63 21 be bc 98 c2 3c 4c 23 01 3e 78 88 7a 3e
       -0.15760493 0.02375447 0.12611121 0.24466121
0001d0 7e 1f 40 3d 6c c0 61 be 27 ce bf 3b 1f 32 80 bd
       0.046905033 -0.2204606 0.0058534327 -0.0625956
0001e0 82 29 89 3b dc e8 af bc 76 c4 c9 3d e1 40 a3 3d
       0.0041858563 -0.02147334 0.09851925 0.07971359
0001f0 b4 29 d3 bd cc ec 1a be e8 6d ba bd 32 03 7f 3d
       -0.103106886 -0.15129393 -0.09102994 0.062258907
000200 1c 6c 2e 3e 5e ad 22 be fe 80 25 3e 86 8a eb bd
       0.17033428 -0.15886447 0.16162488 -0.115010306
000210 c0 05 ae bc 30 2b 21 3e e1 51 9d 3b 05 3e 6a 3c
       -0.021242976 0.15739131 0.0048010205 0.014297013
000220 1c ec d0 bd ec 40 40 bd 9d bc 17 be 6c 7c 82 bd
       -0.10201284 -0.046936914 -0.14818044 -0.06371388
000230 0d 39 7c 3c 86 91 0b be b6 fe b7 bd b6 0c f1 bd
       0.015394461 -0.13629732 -0.08984129 -0.117700025
000240 84 82 e6 3c a4 84 0f be 6c 7b 62 3b 22 fe 40 be
       0.028138407 -0.14015442 0.0034558428 -0.18846944
000250 82 a1 ac bd c8 97 5b 3e f2 c7 d8 3c ce 48 0c 3e
       -0.08429243 0.21444619 0.026462529 0.13699648
000260 f2 aa cf 3d 8f b6 80 3b 74 84 9f 3d a2 c7 1c 3d
       0.10140027 0.0039280127 0.07788935 0.038276322
000270 10 03 49 bd fc b7 1c bd 9d 33 30 bc ec 29 3e 3e
       -0.049075186 -0.0382614 -0.010754493 0.1857068
000280 f4 02 bf 3b 28 0f 1a 3d fc be 0f be a8 5a 21 be
       0.0058292095 0.03761211 -0.14037699 -0.15757239
000290 89 0d 88 bd 3c 70 47 bd 7e 2c a3 3c a6 62 72 bb
       -0.066432066 -0.04869102 0.019918676 -0.0036985069
0002a0 2e a2 fd bd e2 f1 52 be fc 1d 6c 3d dc 8b 34 3e
       -0.12384449 -0.20600083 0.057645783 0.17631477
0002b0 d6 3c ee bd 9a 3c 65 3e 66 95 fa bd 60 f4 7c 3d
       -0.11632697 0.22386399 -0.12235527 0.06175649
0002c0 b2 6c b9 bd 98 b7 2e bd a8 16 77 3d 3a b2 41 bd
       -0.09053935 -0.042655557 0.06032434 -0.04728911
0002d0 9c 12 57 be 26 63 c4 3d f1 b9 37 bd 46 f7 70 3e
       -0.21003193 0.095892236 -0.044855062 0.23531827
0002e0 cb 27 47 bd a6 dc 40 3e 37 ed fc 3c b4 63 26 3e
       -0.048621934 0.1883417 0.030874832 0.16248971
0002f0 4c ef 22 3e 60 41 4a 3e f5 d2 a0 bd ce 95 2d 3d
       0.15911597 0.19751501 -0.07852737 0.042379193
000300 44 fd eb 3d 45 df 00 3c b4 49 4e 3d 8f a2 10 be
       0.11522916 0.007865732 0.050363258 -0.14124511
000310 99 cd 5f be ba b9 12 be 9e 11 92 3d 16 92 19 3d
       -0.21855773 -0.14328662 0.071322665 0.037492834
000320 b2 93 8b bd 9c 82 8d bb cb 25 44 be 5f b6 28 bd
       -0.0681528 -0.0043185484 -0.19155042 -0.041189548
000330 a8 d1 05 3d d6 aa aa bd 0e 47 ae bd a6 02 ae bc
       0.032670647 -0.083333656 -0.08509646 -0.021241497
000340 6c 83 66 bd 28 f9 3b be 24 84 21 3d d1 89 81 be
       -0.056277677 -0.18356764 0.03943266 -0.25300458
000350 b2 c8 00 bd e3 e5 95 3d c0 16 2b be 92 3a 47 3e
       -0.031441398 0.07319238 -0.16707897 0.19455937
000360 06 b0 a1 bc 22 e1 91 bd 1c 62 50 3d ec 94 87 3d
       -0.019737255 -0.07123019 0.050874814 0.066202015
000370 ba 01 57 bd bc cb 68 3d 72 ab 3d 3e 92 f0 2d 3d
       -0.05249188 0.05683492 0.18522432 0.042465754
000380 1c c2 90 be bc a9 14 be dc 8e d0 3e ad 92 85 3e
       -0.28273094 -0.14517874 0.40733993 0.26088467
000390 b8 3d bd bd 4c 06 d1 bc ca 0c 0a bf de 1f 34 3e
       -0.092402875 -0.025515698 -0.53925765 0.17590281
0003a0 46 61 51 3e 08 b8 35 bc 87 af de bd 22 66 0a bf
       0.20447263 -0.01109124 -0.10873323 -0.5406209
0003b0 b8 6b 6b be 70 9c ab be 0d 11 0f 3f 68 8e 94 bd
       -0.2299031 -0.3351779 0.5588539 -0.07253724
0003c0 40 79 e8 bd 5b cc 3a 3d bf 27 95 3e a0 2b c5 be
       -0.113512516 0.045605045 0.29131886 -0.38509846
0003d0 ba 96 07 3f 24 7d d7 bd f6 f0 5b 3e 50 54 52 bf
       0.52964365 -0.105219156 0.21478638 -0.821599
0003e0 76 c1 f8 3e 20 fe 20 be 1a 05 12 3f c2 23 77 bd
       0.485851 -0.15721941 0.57039034 -0.060336836
0003f0 98 0f 44 be d0 f9 4d be a4 48 06 be 5c 29 12 bf
       -0.19146574 -0.20114827 -0.13113648 -0.5709436

fc2.bias f4 [32]
000000 b1 d2 88 3c 8e 76 81 bc 2c d6 ac bc c9 ec 39 bd
       0.016702028 -0.015803602 -0.021098219 -0.04539183
000010 2c 96 eb 3d 49 6d fd 3c b6 33 7a bd 5a 26 b6 3d
       0.115032524 0.0309359 -0.06108447 0.08894034
000020 d0 64 9a 3c 34 74 14 bd 4a 36 27 3e c2 ab e9 3d
       0.0188469 -0.036243632 0.16329303 0.11409713
000030 c5 ea 81 3c 34 48 cf 3d 16 68 49 be b2 82 0e 3e
       0.015859017 0.101211935 -0.19668612 0.13917044
000040 e6 cf 23 3d e4 8f 14 be 62 24 01 be ff a6 27 3e
       0.03999319 -0.14508015 -0.12611535 0.16372298
000050 2a 1c 61 3d 12 05 8e 3d 24 b0 9d 3c 3e a5 56 bd
       0.0549585 0.06934561 0.01924903 -0.05240368
000060 06 a8 8b 3e 3c fb ac 3c 24 b9 47 3c f1 70 af bd
       0.2727663 0.021115892 0.012190137 -0.08566464
000070 fe dd 06 3e de 63 44 bd e1 73 d2 bd 4a 06 03 3e
       0.13170621 -0.047946803 -0.102760084 0.12795368

fc3.weight f4 [4, 32]
000000 b6 6a b6 3d 75 2b 06 3e 8a 3a a3 be d1 cc 87 be
       0.08907072 0.13102515 -0.318806 -0.2652345
000010 6d 19 04 3e 48 44 ab 3c 7b 57 71 3d ea bc a5 be
       0.12900324 0.020906582 0.05892132 -0.32370692
000020 e2 6d 67 be c8 be 52 3e 0b 32 9d bd 9d fa a7 be
       -0.2260051 0.2058059 -0.076755606 -0.3280839
000030 66 11 5c 3e 80 9e ea bd 05 78 dc 3d ba 35 6b 3e
       0.21491012 -0.11456013 0.107650794 0.22969714
000040 50 e6 ad 3c 28 f8 b2 3c d8 87 77 3e 02 30 a4 be
       0.021227986 0.021846846 0.24172914 -0.32067877
000050 fb 66 05 3e 68 4f 39 3d 7a ad a7 be 72 5d 00 be
       0.13027565 0.045241743 -0.3274954 -0.12535647
000060 d0 bf 87 be 7f fd 8d 3e 01 f3 23 3e f4 90 5e 3e
       -0.2651353 0.27732465 0.16010667 0.21734983
000070 1e 6f 03 be 28 7e 46 3e 58 c6 7e bb 3a 12 c0 be
       -0.12835357 0.19384062 -0.0038875546 -0.37513906
000080 28 d3 a5 be a6 33 31 bd 50 89 5c 3f ab b8 8b be
       -0.32387662 -0.043262146 0.8614702 -0.27289328
000090 76 99 e8 3d 30 fa dc bb a4 83 85 3c 06 9e 74 3f
       0.11357395 -0.006743692 0.016298123 0.95553625
0000a0 68 a0 70 3e a0 9b d5 3e d0 31 f2 3e a0 34 e9 3e
       0.2349869 0.41720295 0.4730363 0.45547962
0000b0 4f 44 8d 3f f8 52 55 3d 0b 20 7b be b2 8e 09 3f
       1.1036471 0.05208108 -0.24523942 0.5373336
0000c0 01 cf 86 3f 84 d7 dd bf f4 bd c6 be ae ee 80 3b
       1.0531923 -1.7331395 -0.38816798 0.003934703
0000d0 e8 1b a3 3e eb 35 83 3e 56 30 5b bd ea b5 0b 3e
       0.31857228 0.25627074 -0.053512894 0.13643613
0000e0 00 36 7f 3e 36 3b 66 3f 03 17 85 3f e9 02 11 3f
       0.24922943 0.899341 1.0397648 0.56645066
0000f0 22 c8 a7 3e 93 12 d7 3f d8 66 c4 3e ee c8 57 3e
       0.32769877 1.6802543 0.38359714 0.21072742
000100 68 da b6 be a8 2c b0 bc d0 41 5e 3f a4 e5 f1 3e
       -0.35713506 -0.021505669 0.8681917 0.47245514
000110 fe 66 40 be e0 9d 15 be 86 8c d0 be fe b5 1d 3f
       -0.18789288 -0.14611006 -0.4073221 0.61605823
000120 de 6d 48 3f 1d 17 17 bf 5b 65 c4 bc d6 79 3a 3f
       0.78292644 -0.59019643 -0.023974111 0.72842157
000130 d0 17 57 bf 8e cb 3b 3f 37 b0 55 be c0 63 55 bf
       -0.8402071 0.73357475 -0.20868002 -0.8335533
000140 59 96 a6 be c2 4e 89 3f 75 c8 19 3e 48 54 5f 3f
       -0.3253658 1.072716 0.15017875 0.8723798
000150 8a 02 a0 be 8a 78 d6 be 62 e2 f3 3e 4c 79 f3 bd
       -0.31251937 -0.4188884 0.47633654 -0.1188837
000160 fe d3 23 3e fe c6 83 bf bd 4f 53 bf 11 39 1d bf
       0.15998837 -1.0295103 -0.82543546 -0.614152
000170 e4 43 84 3e 90 18 86 bf 1e d0 97 be 29 99 f4 3e
       0.25833046 -1.0476246 -0.29650968 0.47773102
000180 fc 8e af 3e a2 28 5f 3d 2e f1 b1 bf be 12 a4 be
       0.34288776 0.05448211 -1.3901727 -0.3204555
000190 48 ee c0 3d 5e 06 c3 3e 9c 5e 55 bd 18 58 aa bf
       0.094204485 0.38090795 -0.05209218 -1.3308134
0001a0 36 65 fa be 0c 29 a0 bd 7e 14 aa be 44 2e 47 bf
       -0.48905343 -0.07820329 -0.3321876 -0.7780497
0001b0 8a 14 da be ae 52 b5 be 70 d8 b7 3d cc ed 9d 3e
       -0.42593795 -0.35414642 0.08976829 0.30845487
0001c0 aa 6c 48 bf 1e a7 65 3f 84 e4 66 3e 24 09 01 bf
       -0.7829081 0.89708126 0.2254811 -0.5040457
0001d0 e9 42 8d be be 40 17 3e 92 40 7a be fa be 85 be
       -0.2759011 0.14770791 -0.24438694 -0.26122266
0001e0 86 47 a2 be 1a d5 21 bd 52 24 25 bf 98 de ac be
       -0.31695193 -0.03950987 -0.64508545 -0.33763576
0001f0 52 b8 41 be 36 70 5f bf 20 0b df be d8 2f 05 bf
       -0.18917969 -0.87280595 -0.43563175 -0.5202613

fc3.bias f4 [4]
000000 26 50 a0 be b3 cb 4a 3e 94 f5 a5 3e 23 83 52 be
       -0.31311148 0.19804268 0.32413924 -0.20557837
