ckpts/LunarLander-v2/TRPO/10/critic.pth (torch, 7319 bytes, 5 tensors)

fc1.weight f4 [32, 8]
0	0xbe2960b6	-0.16540799
1	0x3d8d9643	0.06913426
2	0x3e3b6557	0.18300377
3	0xbe390685	-0.18068893
4	0xbca33716	-0.019923728
5	0xbe59e096	-0.21277079
6	0xbd763bd4	-0.06011565
7	0xbdafdd49	-0.08587129
8	0xbdaafa7f	-0.083485596
9	0x3e95bb9a	0.2924469
10	0x3da0bc9b	0.07848474
11	0xbd1df470	-0.038563192
12	0xbe6baa84	-0.23014265
13	0xbe78ea57	-0.24308144
14	0xbeb4f517	-0.3534324
15	0xbe8e32c7	-0.27773115
16	0xbe6bf87f	-0.23044012
17	0xbe211c87	-0.15733539
18	0xbe6b2b7d	-0.22965808
19	0x3e842f23	0.25817212
20	0xbdaf7d06	-0.08568768
21	0xbe1a53d9	-0.15071048
22	0x3ea60348	0.32424378
23	0x3e35782a	0.1772162
24	0x3df81fb0	0.12115419
25	0xbdabafd1	-0.08383144
26	0xbe87b07f	-0.26501843
27	0xbb56d522	-0.0032780846
28	0x3e21b078	0.15789974
29	0x3e9a0fba	0.30090123
30	0xbe302489	-0.17201437
31	0xbd68e688	-0.056860477
32	0x3dd53191	0.10409845
33	0xbeb119c0	-0.34589958
34	0x3d0c5844	0.034263864
35	0xbb886b04	-0.004163148
36	0xbe0784ca	-0.13234249
37	0xbe51c83e	-0.20486543
38	0x3e145109	0.14484037
39	0xbea550b6	-0.3228814
40	0xbe8c49ae	-0.27399963
41	0x3d1f4000	0.038879395
42	0xbe5bb943	-0.2145739
43	0x3e4c5558	0.19954431
44	0xbe0fa4cc	-0.14027709
45	0xbe8ca1d5	-0.27467218
46	0xbe5bb57d	-0.21455951
47	0x3e90cc21	0.28280738
48	0xbdc4a4f7	-0.09601777
49	0xbe84b5fe	-0.259201
50	0x3d1d9962	0.038476355
51	0x3e83badd	0.25728503
52	0x3e9a71b7	0.30164883
53	0x3e86ef30	0.2635436
54	0xbd40f68f	-0.047110137
55	0xbe45d0e8	-0.19317973
56	0xbe8d824b	-0.27638468
57	0xbd5b12f6	-0.05348488
58	0x3dfd4730	0.123670936
59	0x3bc4becc	0.00600419
60	0xbd5c76f1	-0.05382437
61	0xbdb4f56b	-0.08835872
62	0x3dc29be1	0.09502388
63	0x3b86c956	0.0041133566
64	0xbea2428c	-0.31691396
65	0xbd9bc29f	-0.076054804
66	0xbe911a2e	-0.28340286
67	0x3e4bfe5c	0.19921249
68	0xbe9f22fe	-0.31081384
69	0x3e367a57	0.17820106
70	0xbd04ba76	-0.032404386
71	0xbe56cc17	-0.20976292
72	0xbe8f383b	-0.27972588
73	0x3de51c0d	0.11186991
74	0x3e2595b4	0.16170388
75	0x3cce51a6	0.025185417
76	0x3eb0a246	0.34498805
77	0x3e4ae7cd	0.19814987
78	0x3c0a8cc3	0.008456412
79	0xbea91aa9	-0.33028153
80	0xbd7ce502	-0.061741836
81	0x3e319ee9	0.17345776
82	0xbe94e6e9	-0.2908242
83	0x3ea661d2	0.32496506
84	0xbe37f0e4	-0.17962986
85	0xbeb25e94	-0.34837782
86	0x3e954550	0.29154444
87	0xbd30683c	-0.043068156
88	0xbe818cf0	-0.2530284
89	0xbe832999	-0.25617674
90	0x3eabcbf6	0.33554047
91	0xbc9ec47e	-0.019380804
92	0xbe9036f5	-0.2816693
93	0x3d0d6674	0.034521535
94	0x3e201e21	0.15636493
95	0xbe8f74a0	-0.28018665
96	0x3eb23ad3	0.34810504
97	0xbebc74f9	-0.36807993
98	0xbe3fef0e	-0.18743536
99	0xbe562743	-0.20913415
100	0x3e6eb157	0.23309837
101	0x3df40451	0.11914886
102	0xbe931ee8	-0.28734517
103	0x3e698fa3	0.228087
104	0x3e88f4a0	0.26749134
105	0x3e15dd57	0.14635216
106	0x3e07c70c	0.13259524
107	0xbe5bdb93	-0.2147048
108	0x3d85a881	0.0652628
109	0xbce84e8c	-0.028357767
110	0x3e04d901	0.12973405
111	0x3c2d8123	0.010589871
112	0x3e9feb37	0.31234142
113	0x3e402eb6	0.18767819
114	0xb9855e3a	-0.0002543794
115	0xbdb9e111	-0.09076131
116	0xbe7bd0d8	-0.24591386
117	0x3de41fb8	0.11138862
118	0x3e88f074	0.2674595
119	0x3e1b32af	0.15156053
120	0xbea75ab5	-0.3268639
121	0x3d95d10c	0.07315263
122	0x3de88ef1	0.11355389
123	0x3d7fb3f4	0.062427476
124	0xbe249d17	-0.1607555
125	0xbeaaaa48	-0.3333304
126	0x3c59341f	0.013257056
127	0x3e25616e	0.16150448
128	0x3da58230	0.08081472
129	0x3e8fc06d	0.28076497
130	0xbdfd5c5d	-0.123711325
131	0x3e18837e	0.1489391
132	0xbea31ff2	-0.3186031
133	0xbd9ecc94	-0.07753864
134	0xbe1bb39c	-0.15205234
135	0x3e26dd33	0.16295318
136	0xbe048387	-0.12940799
137	0xbdd941c2	-0.106082454
138	0x3e7d5050	0.24737668
139	0x3e552b57	0.20817314
140	0x3e3f76e7	0.18697701
141	0x3dd08e97	0.10183447
142	0x3e5c49c3	0.21512513
143	0x3e391078	0.18072689
144	0x3cfa2f7e	0.030540224
145	0x3e91fc04	0.28512585
146	0x3e26d5e8	0.16292536
147	0x3e602744	0.21889979
148	0x3d716182	0.05893088
149	0x3d787b4c	0.06066446
150	0xbe2608f8	-0.16214359
151	0xbe8b293a	-0.2717989
152	0x3dee3604	0.116313964
153	0xbe3becf1	-0.18352105
154	0xbe405049	-0.18780626
155	0x3e32b0d1	0.17450263
156	0x3eb889d9	0.3604267
157	0x3ea420dc	0.3205632
158	0xbdce07e2	-0.10060097
159	0x3e4b603d	0.1986093
160	0x3e76d316	0.2410396
161	0xbec95864	-0.3932525
162	0x3e80a050	0.2512231
163	0xbe018dfe	-0.12651822
164	0x3de19b46	0.11015944
165	0x3ccc1819	0.024913834
166	0x3eb543b3	0.35403213
167	0x3e822d01	0.2542496
168	0x3e21a6e1	0.15786316
169	0x3d99fe49	0.07519204
170	0x3e822c91	0.25424626
171	0xbe3906ef	-0.18069051
172	0x3cbb9da5	0.02290232
173	0xbe9f02e6	-0.310569
174	0x3c79971f	0.015233784
175	0x3d60bfb8	0.054870337
176	0x3e160b3a	0.1465272
177	0x3e41357a	0.18868056
178	0x3e88f806	0.26751727
179	0xbeb9a430	-0.36258078
180	0xbd3fb5e3	-0.04680432
181	0x3e109c1b	0.1412205
182	0x3e96665b	0.29374966
183	0x3e4c2470	0.19935775
184	0x3e6cdf6a	0.231321
185	0x3eb42bf4	0.35189784
186	0xbc14274f	-0.009042575
187	0x3e88b712	0.26702172
188	0x3e862a3c	0.26204097
189	0x3c9c7f30	0.019103616
190	0xbeb2a634	-0.34892428
191	0xbd94f5a9	-0.072734185
192	0x3eb44a4e	0.3521294
193	0xbe8e88d6	-0.27838773
194	0x3d2873d6	0.041126095
195	0x3d8b86a1	0.06812788
196	0xbe4d61f9	-0.20056905
197	0x3d0abfc6	0.033874296
198	0xbe04411c	-0.12915462
199	0x3d6bc19a	0.05755768
200	0x3e55f0a9	0.20892586
201	0x3ebedbd0	0.3727708
202	0x3e722607	0.23647319
203	0xbeb86676	-0.36015671
204	0xbe6ac61e	-0.22927138
205	0x3deec8e2	0.11659409
206	0xbd8d0351	-0.06885398
207	0x3e5bff3c	0.21484083
208	0xbeaca516	-0.337197
209	0xbd98763c	-0.074444264
210	0x3da95af9	0.08269305
211	0x3e4009ae	0.18753693
212	0x3eaa4e2d	0.33262768
213	0xbeafc920	-0.34333134
214	0x3e8b8663	0.27250966
215	0x3e02ccdc	0.1277346
216	0xbe7351f0	-0.23761725
217	0xbc61ba6f	-0.013777359
218	0xbe8d4cfd	-0.275978
219	0xbd492aef	-0.04911321
220	0xbcabe415	-0.020982781
221	0xbe2a7f9b	-0.1665024
222	0xbec04c6a	-0.375583
223	0xbd8aa9d8	-0.067706764
224	0x3e93eaf8	0.28890204
225	0x3da0b3f9	0.07846827
226	0xbe56cc3f	-0.20976351
227	0x3d7a77c2	0.061149366
228	0xbded5413	-0.115883015
229	0xbeb4c125	-0.35303608
230	0x3e9e4aa5	0.30916324
231	0x3e657fe0	0.22412062
232	0x3dc39aba	0.09550996
233	0xbe44bb41	-0.19212057
234	0xbe2eefc9	-0.17083658
235	0x3ec01f67	0.37523958
236	0xbe91acf4	-0.28452265
237	0xbd122716	-0.035681807
238	0x3e61f763	0.22067027
239	0x3e87140d	0.26382485
240	0x3ea576ea	0.32317287
241	0x3e5e2b23	0.21696143
242	0x3eb2b151	0.34900907
243	0xbe971534	-0.29508364
244	0xbc0ed29f	-0.008717208
245	0xbeacccf9	-0.33750132
246	0xbd788c75	-0.060680825
247	0x3dc4c91d	0.09608672
248	0x3e7210d9	0.2363924
249	0xbda86e54	-0.082241684
250	0xbe80c8e9	-0.25153282
251	0x3ea0fda4	0.31443512
252	0x3e00bc3c	0.12571806
253	0xbe7caa3d	-0.24674316
254	0x3de27b35	0.11058656
255	0x3d208961	0.039193515

fc1.bias f4 [32]
0	0x3d850e79	0.06496901
1	0x3e543974	0.20725042
2	0xbe0098e5	-0.12558325
3	0x3ea2e118	0.31812358
4	0x3e8f0d31	0.27939752
5	0x3de98ed9	0.11404199
6	0xbe319d92	-0.17345265
7	0xbd9d21b9	-0.07672448
8	0x3e1ff245	0.15619762
9	0x3e8953a1	0.26821616
10	0x3b2ca259	0.0026341884
11	0x3d7ac7a7	0.06122556
12	0xbead9254	-0.33900702
13	0xbe96f698	-0.2948501
14	0xbd8e791e	-0.06956695
15	0x3da72446	0.081612155
16	0x3c322b4f	0.010874583
17	0x3eb1b4ba	0.34708196
18	0x3e7895bc	0.24275869
19	0x3e9191cf	0.28431556
20	0x3e0bad16	0.13640246
21	0xbc0c14a4	-0.008549843
22	0xbdb211ce	-0.08694802
23	0x3e9fa4b0	0.31180334
24	0xbea962ca	-0.33083183
25	0xbdc93ab9	-0.098256536
26	0xbe5e0b9f	-0.2168412
27	0xbe927892	-0.28607613
28	0xbe9148eb	-0.28375944
29	0x3e173929	0.14767899
30	0x3d7c7f8e	0.061645083
31	0x3e6946e3	0.22780947

fc2.weight f4 [32, 32]
0	0x3e296433	0.16542129
1	0xbd971001	-0.073760994
2	0xbe05f1d7	-0.13080536
3	0xbddeebac	-0.108847946
4	0xbe311475	-0.1729296
5	0xbd9d8acb	-0.07692488
6	0xbe27ce2d	-0.16387244
7	0x3ce47441	0.027887465
8	0x3d0717c9	0.032981668
9	0x3e115ed1	0.14196326
10	0x3e1d6973	0.15372257
11	0x3dab40d0	0.083619714
12	0x3e08b440	0.1335001
13	0x3e0bc18f	0.13648055
14	0x3dd623db	0.10456058
15	0xbd2617bd	-0.040549982
16	0xbdf2f421	-0.1186297
17	0x3dfc5ccb	0.12322386
18	0xbde436b3	-0.111432455
19	0xbb61c850	-0.003445167
20	0x3e04b481	0.12959482
21	0x3d7a0e0d	0.061048556
22	0xbd04d8c1	-0.032433275
23	0xbd277f61	-0.040892962
24	0x3df9de04	0.12200549
25	0xbdd37300	-0.10324669
26	0xbd371817	-0.04470071
27	0xbe14fa57	-0.14548622
28	0x3c32c1ce	0.010910464
29	0xbda43e04	-0.08019641
30	0xbd878854	-0.066177994
31	0xbe5abac9	-0.21360315
32	0x3e3a887f	0.18216132
33	0x3db49595	0.08817593
34	0x3d1dd1fd	0.03853034
35	0xbddf5baa	-0.109061554
36	0xbe083557	-0.13301598
37	0xbd55d539	-0.052205298
38	0x3d31c890	0.043404162
39	0xbd3245f9	-0.043523762
40	0x3cfdc069	0.030975537
41	0x3e46ab50	0.19401288
42	0xbda0f315	-0.07858864
43	0x3d27bf2e	0.040953808
44	0x3d0e26fc	0.034705147
45	0xbcf014bb	-0.02930676
46	0xbdb626dc	-0.088941306
47	0x3dcaf03c	0.09909102
48	0xbdbaecdc	-0.091272086
49	0x3e0483d5	0.12940915
50	0x3d07ac48	0.033123285
51	0x3d073d66	0.03301754
52	0xbdff8b08	-0.1247769
53	0xbd2d88ce	-0.042366795
54	0x3d4ae922	0.04953874
55	0xbdb47fed	-0.088134624
56	0x3c0df923	0.008665356
57	0xbd5ca5f5	-0.053869206
58	0xbd33cb36	-0.04389497
59	0x3d4b1f52	0.049590416
60	0xbca1e26e	-0.01976129
61	0x3c893848	0.01675047
62	0x3ce1e9a9	0.027577238
63	0xbe492e19	-0.19646491
64	0x3e06574f	0.13119243
65	0xbd1d18c8	-0.03835371
66	0xbe3963a7	-0.1810442
67	0x3e18bfe0	0.14916945
68	0x3e0d1c3f	0.13780306
69	0x3d77ae98	0.06046924
70	0xbd1f2220	-0.038850904
71	0xbd79326b	-0.060839098
72	0xbd9c383a	-0.07627912
73	0x3d414790	0.047187388
74	0xbdf2b115	-0.11850182
75	0x3e0dc2d3	0.13843851
76	0x3ceeb3ce	0.029138472
77	0xbdc736df	-0.09727263
78	0x3ddbb052	0.1072699
79	0xbd8d6276	-0.069035456
80	0x3debf9c1	0.11522246
81	0x3ca156b0	0.019694656
82	0x3dfd3a9f	0.12364697
83	0x3d26e5a3	0.040746342
84	0x3dee729a	0.11642952
85	0x3d6d1735	0.05788346
86	0xbd47d463	-0.048786532
87	0xbcfd3678	-0.030909762
88	0xbdc76042	-0.097351566
89	0xbcb702d0	-0.022340208
90	0xbe0ad0a7	-0.13556157
91	0xbddd2be4	-0.10799387
92	0x3dcc26d1	0.09968341
93	0xbceffcb9	-0.029295312
94	0x3e33465e	0.17507312
95	0x3e05e46e	0.1307542
96	0x3dbbd5e6	0.09171657
97	0x3d9dbaac	0.077016205
98	0xbd3ee57a	-0.046605565
99	0xbd214a0c	-0.039377257
100	0x3d7bdabb	0.061487895
101	0xbe1b2b17	-0.15153156
102	0x3e10f5e8	0.14156306
103	0x3d57e8a8	0.052712113
104	0xbe017191	-0.12640978
105	0xbce1e7bb	-0.027576318
106	0x3db31578	0.08744329
107	0x3e0930c2	0.13397506
108	0x3e31fdd8	0.1738199
109	0xbcd5cecb	-0.026099583
110	0xbd008399	-0.0313755
111	0x3e14aeaf	0.14519762
112	0xbdccb80d	-0.099960424
113	0xbb866449	-0.0041013104
114	0xbd6f1b67	-0.058375742
115	0x3d98a364	0.07453039
116	0x3d19e611	0.037572924
117	0x3da40f1f	0.080106966
118	0x3cf77cad	0.030210817
119	0x3c843fbf	0.016143678
120	0xbc344562	-0.01100287
121	0x3e00e03a	0.12585536
122	0x3d1825bd	0.037145365
123	0xbe3f34ea	-0.18672529
124	0x3d885f36	0.06658785
125	0x3e01ce81	0.12676431
126	0xbd79d52f	-0.060994323
127	0xbdfc18b9	-0.12309403
128	0xbc9acd5e	-0.018896755
129	0x3df05a10	0.11735928
130	0x3daf738d	0.085669614
131	0x3cbe439c	0.023225598
132	0xbe241553	-0.1602376
133	0x3aaa2e85	0.0012983835
134	0xbdabcc50	-0.08388579
135	0x3e2ac3c4	0.16676241
136	0xbe32bd53	-0.17455034
137	0x3d0fc6eb	0.035101812
138	0xbdde0da1	-0.10842443
139	0x3de0acc4	0.109704524
140	0xbd9f2899	-0.07771415
141	0x3ca3c7ba	0.019992698
142	0x3e215138	0.15753639
143	0x3dadd9ff	0.08488845
144	0x3d0951e7	0.033525374
145	0x3e4d142b	0.20027225
146	0xbd046462	-0.032322295
147	0xbdca6571	-0.0988263
148	0xbd86b7f2	-0.065780535
149	0x3da0c323	0.078497194
150	0xbe2f27d8	-0.17105043
151	0xbbc4a36d	-0.006000927
152	0x3ce55dad	0.02799877
153	0xbe190685	-0.14943893
154	0xb9bcfb5e	-0.00036045437
155	0xbe07b1dc	-0.13251442
156	0xbd2c46d4	-0.042059734
157	0xbdc81019	-0.097686954
158	0x3d9c267f	0.0762453
159	0xbdb56b17	-0.088583164
160	0xbe276414	-0.1634677
161	0xbd8f9f97	-0.07012861
162	0x3c81384c	0.015773915
163	0xbde5d0a9	-0.112214394
164	0x3e3f67db	0.18691961
165	0x3da391a4	0.07986763
166	0x3db9a5f9	0.0906486
167	0x3b6d34cc	0.00361948
168	0xbbdb57c6	-0.006693813
169	0xbe22fad2	-0.15915993
170	0xbdd65dc3	-0.104671024
171	0x3e0ec1f9	0.13941182
172	0x3e112bcb	0.14176862
173	0x3c6d3fdf	0.01448056
174	0xbe11f78a	-0.14254585
175	0x3d2b4a34	0.041818812
176	0xbe0c7787	-0.13717471
177	0x3dd35074	0.103180796
178	0xbc202f21	-0.009776861
179	0x3e4e37c9	0.20138468
180	0xbd17b009	-0.037033115
181	0x3c88c123	0.016693657
182	0xbcdba0fb	-0.02681016
183	0xbd85fe4a	-0.065426424
184	0xbd991bce	-0.074760064
185	0xbe2ecfd2	-0.17071465
186	0xbcbe4d71	-0.023230286
187	0x3d437458	0.047718376
188	0xbd9e4a08	-0.07728964
189	0x3dc5cc14	0.096580654
190	0x3db098ea	0.08622916
191	0x3a2002d9	0.000610394
192	0xbe47279c	-0.19448704
193	0x3d5af87f	0.05345964
194	0xbd0a2154	-0.03372319
195	0xbe1bd24d	-0.15216942
196	0xbe0b8c02	-0.13627627
197	0xbdeafbdf	-0.11473822
198	0x3cd19241	0.025582435
199	0x3ca3a4c3	0.019976025
200	0x3e1e6338	0.15467536
201	0x3e159d92	0.1461089
202	0x399afb18	0.00029560248
203	0x3de508c1	0.1118331
204	0x3e3b559c	0.18294376
205	0x3d06e047	0.03292873
206	0xbd646e45	-0.055769224
207	0x3d6e27e3	0.058143508
208	0xbdad903d	-0.08474777
209	0xbe0ff0d6	-0.14056715
210	0xbe208d4e	-0.15678903
211	0xbc16f6f6	-0.0092141535
212	0x3e4a8e4d	0.19780846
213	0xbc6bd43d	-0.014393863
214	0xbe27c861	-0.16385032
215	0xbd5ad7a3	-0.053428303
216	0xbdf65c27	-0.120292954
217	0xbcf5414a	-0.029938359
218	0xbd59e02b	-0.0531923
219	0xbc6e6f27	-0.014552868
220	0x3e37b0d1	0.17938544
221	0xbcae5ee5	-0.021285484
222	0x3ca96e8f	0.020682601
223	0xbd559257	-0.052141514
224	0x3e3d40ca	0.18481746
225	0xbcbf7aa1	-0.023373904
226	0x3e0c32a8	0.13691199
227	0x3e3f84aa	0.18702951
228	0x3db6075a	0.08888121
229	0xba2911e8	-0.00064495066
230	0xbdf1a1dd	-0.11798451
231	0x3d111614	0.035421446
232	0x3d41b751	0.047293965
233	0x3da9a688	0.082837164
234	0xbd7f6b01	-0.062357906
235	0x3d701f51	0.058623616
236	0xbe163553	-0.14668779
237	0x3e0f5594	0.13997489
238	0xbe08fb2c	-0.13377064
239	0x3d8fa43a	0.070137456
240	0x3dba6101	0.09100533
241	0x3dcfed83	0.10152724
242	0xbd33f154	-0.04393132
243	0xbd86eb59	-0.06587858
244	0xbe2913a1	-0.16511394
245	0x3d2b7ca0	0.0418669
246	0x3e33e73d	0.17568679
247	0x3d825c26	0.06365232
248	0x3d56b700	0.052420616
249	0x3cbb8a4f	0.0228931
250	0xbe4df236	-0.20111927
251	0x3db29e31	0.08721579
252	0xbcd74ff7	-0.026283247
253	0xbe14d143	-0.14532952
254	0x3e49b345	0.19697292
255	0xbe10066b	-0.14064948

fc2.bias f4 [32]
0	0x3e1d3f15	0.15356095
1	0x3e49bb83	0.19700436
2	0xbd63ba63	-0.055597674
3	0xbd99ddad	-0.075129844
4	0xbe064fda	-0.13116398
5	0x3ddf8901	0.10914803
6	0x3db3aae0	0.08772826
7	0xbe0b6a78	-0.13614833
8	0x3dad70f4	0.0846881
9	0xbd969363	-0.073523305
10	0x3dda8bdf	0.106712095
11	0xbd895ed1	-0.06707538
12	0x3c975210	0.018471748
13	0x3d83bce5	0.06432513
14	0x3cc9f6f9	0.024653899
15	0x3e11d210	0.14240289
16	0x3da9003f	0.08252
17	0x3dae5797	0.085128
18	0x3e0e1107	0.13873683
19	0xbdd1f66e	-0.10252081
20	0xbd319752	-0.0433572
21	0x3df33db4	0.11877003
22	0x3e083aca	0.13303676
23	0x3dab2a23	0.08357646
24	0x3d3359df	0.04378688
25	0x3dc484f1	0.09595669
26	0xbe1f36d3	-0.15548258
27	0x3dcb01ef	0.09912478
28	0xbe008b6a	-0.12553182
29	0xbddc230a	-0.10748871
30	0x3e4aad5e	0.19792697
31	0x3ddea24d	0.108708

fc3.weight f4 [1, 32]
0	0x3d91c822	0.071182504
1	0x3e57438f	0.21021865
2	0x3d5bc74c	0.05365686
3	0xbdc23e68	-0.09484559
4	0xbd326c32	-0.043560214
5	0xbdcf3813	-0.10118117
6	0xbcec0a6a	-0.02881356
7	0x3e3ad372	0.18244722
8	0xbdbeb6f3	-0.093122385
9	0x3dc3b573	0.09556093
10	0xbdeac066	-0.11462478
11	0xb9b16d16	-0.00033841346
12	0x3ddc3b49	0.10753495
13	0xbe1b4f58	-0.15166986
14	0xbe01c8bb	-0.12674229
15	0xbe17a58c	-0.14809245
16	0xbddc0848	-0.10743767
17	0x3e4acc06	0.19804391
18	0xbd56a93d	-0.052407492
19	0x3d42268a	0.047400035
20	0xbdb4beaf	-0.088254325
21	0xbd64e079	-0.055878136
22	0xbe47c087	-0.19507037
23	0xbd46218f	-0.048371848
24	0x3dee694e	0.11641179
25	0xbdaa6200	-0.08319473
26	0xbd8bea39	-0.06831784
27	0x3e40dec6	0.18834981
28	0x3d3c0762	0.04590548
29	0x3e39290a	0.18082061
30	0x3e405f97	0.18786465
31	0x3e316043	0.17321877
