ckpts/LunarLander-v2/TRPO/30/actor.pth (torch_old, 6988 bytes, 6 tensors)

fc1.weight f4 [32, 8]
00000000: 36a2 cdbd 9d5a a13f 6293 b9be b2c1 583f
00000010: 610d 0b3e dc6b 5b3d ac3e 913e 91f7 c3bd
00000020: 206c b73d 8710 113d 387e a53e f02a 36bd
00000030: 4413 44bb 6074 b2be d699 99bd 86c7 9ebd
00000040: e07a e63d 2673 f8be 877b 67be 1801 b4be
00000050: 5a0b 2f3f c666 e53e d426 8cbe 90ac 1c3e
00000060: 9c0b 6b3e 476e 18bd 791c fa3b b0cb 753d
00000070: eae3 f6be de41 9bbe addd a13e f821 35be
00000080: 7b54 ff3d 06bd 493f 3cc2 913c 2620 083f
00000090: d801 36bf cae8 7ebf e029 043e ba7c 25be
000000a0: 9a95 e9be 0173 e0be 2490 1abe fad0 f3be
000000b0: 60db 9d3d 78d3 cb3e 657a 7e3d 76c7 7a3e
000000c0: f688 d1bd 4dd7 6abc 2018 e13d 00b8 103d
000000d0: aab4 aabe 1ab9 c3be 8a81 e63c d03b cbbc
000000e0: 8c2f 683e a7b7 bf3e 4c28 bd3d 3046 7bbe
000000f0: d8fa fcbd c5e5 91be 1634 933e 52a7 6abd
00000100: 87b5 5a3e 828f 71bf 8a41 7e3d e4ea 26bf
00000110: fbea 0a3f 52ad 193f 23a1 84be 8667 a73d
00000120: 5908 dbbe dad0 803f 8d88 18bf 889c 543f
00000130: 3c7c 273f c7db 023f 40ec 1abe 0c27 8d3d
00000140: a40a 773e 94d4 333f 4d62 c13d 5c0a ef3e
00000150: 42e1 ffbe 7a2c 29bf 18e7 2c3e 70d0 90be
00000160: 9c98 973e c84d b43e 96d1 053e 00b2 1a3f
00000170: da1e 91bc 3bb4 fabe e887 a03e e85b 763d
00000180: 2c52 1dbf 261f 1cbd 7249 19bf 9cec ee3d
00000190: 74f4 8c3f f268 b73f 40df 09be 503d 503e
000001a0: dd84 e5be 1494 f63e f786 03bf 3895 603e
000001b0: fe42 423f 9210 9a3f 0cf6 62be 645d 953e
000001c0: bd0a 84bd 267b babf 30b2 cfba 645d 4ebf
000001d0: e63d 9e3e 1873 553f 4342 a1be bfa2 7c3e
000001e0: 7acf ed3e 1bf5 1abf 342e 5f3e c34a a0be
000001f0: 3224 90be 76d2 5dbd 7185 a23d 7a43 e3bd
00000200: 7234 e3bd 02c3 143e 720e dcbe 3a72 8b3d
00000210: 6267 203f 3e4c e23e e421 ea3c ba99 45be
00000220: 8e10 693f 0de0 3cbf 9da3 2e3f 88f4 22bf
00000230: 682e 52bf f274 63bf 84f7 10be 88b8 643e
00000240: c20f aebe 9b50 493e 1168 80bd dec4 f93e
00000250: 6e31 1c3f 7b0f 003f 006e c8bd 7ccc 7e3c
00000260: 81b4 763e 4271 25be 26fb 0d3e 2ed8 0dbf
00000270: 5eb9 86be c441 c63c e05b 61be e978 cabb
00000280: 768c bf3e 5753 36bf b6db 8f3e 107e 22bf
00000290: 23c4 c4be de6f d1be 1a71 85be 37a1 853e
000002a0: d677 98bd de0c 77be dc73 2cbd f7e4 8dbd
000002b0: 0147 a73d 7dc6 9fbc faf1 c8bd 828d 3dbe
000002c0: 5a04 603e ca69 e63e 406f 6cbd cecf 023f
000002d0: 689d c6be 7c64 56bf 7a69 323e 115d 0e3d
000002e0: 6ccd 9b3e 7c63 ec3e dc9d 09be 46ab 763e
000002f0: 6ed5 fabd 5ed2 fbbe 87be 00be 2089 d0be
00000300: 1c79 2ebf a814 603e 34a5 2cbf 34ef 7f3e
00000310: 980c 643f 9ede 383f ec16 9cbd 1e52 22bc
00000320: 3ef1 4b3e 72ce 72bf 3458 133e 942b 5fbf
00000330: 7f77 113e f264 f3bd 70da 75bd 4c56 e23d
00000340: 2e58 e0be 2856 bdbe ead5 9dbe 90f2 ebbe
00000350: bd42 873f bed3 c53f 9a63 c8be 25b2 0abd
00000360: 8f07 edbe ea37 093f ded3 56bf 22f8 bb3e
00000370: ca9a 6b3f a2da 9a3f 5fd1 35be 5167 933e
00000380: feed 853d 341c 05bf 060b 5b3d 689d c6bd
00000390: 9c83 3ebe a26c b03e 28b9 4a3e eade 4e3e
000003a0: 06f5 0a3d c434 15be 350e babd 5020 42bf
000003b0: 8e3a cb3e c4b8 763e 9412 04be bd4e 123e
000003c0: 60c6 b2be 5454 eabe ea4a a5be 5a6a d1be
000003d0: 0022 d73e 70c6 9b3f c8ff d5be 6c02 ab3d
000003e0: 74f4 fe3d 6765 c4be 12fe f23d cc43 85be
000003f0: 0e8e 8ebe 2c26 f7be 2979 90bd 6ee9 c9be
-0.10040705 1.2605778 -0.36245257 0.84670556 0.13579322 0.05356966 0.28368127 -0.09568704
0.0895617 0.035416152 0.3232286 -0.044474542 -0.002991871 -0.34854412 -0.07500045 -0.077529
0.11253905 -0.4852535 -0.22605716 -0.35157084 0.68376696 0.44804972 -0.27373374 0.15300202
0.22953647 -0.037214544 0.0076327887 0.060008705 -0.4822076 -0.3032369 0.31614438 -0.1768874
0.12467285 0.7880405 0.017792813 0.53174055 -0.71096563 -0.9957396 0.12906599 -0.1616086
-0.4562195 -0.4383774 -0.15094048 -0.47620374 0.07707858 0.39809775 0.062128443 0.24490151
-0.10231201 -0.014333558 0.109909296 0.035331726 -0.3334096 -0.3822716 0.02813794 -0.024808794
0.22674388 0.37444803 0.09236202 -0.24538493 -0.12352532 -0.28495613 0.28750676 -0.057288475
0.2135831 -0.943596 0.06207422 -0.65202165 0.542648 0.6003009 -0.25904188 0.081740424
-0.42779806 1.0063736 -0.5958336 0.8305135 0.6542394 0.51116604 -0.15129185 0.06892213
0.24125153 0.70246243 0.094425775 0.4668759 -0.49976546 -0.6608349 0.1688503 -0.28284025
0.2960862 0.35215592 0.13068232 0.60427856 -0.017714906 -0.4896563 0.31353688 0.060146242
-0.6145351 -0.038115643 -0.59877694 0.116662234 1.1012101 1.4328902 -0.1346407 0.20335889
-0.4482793 0.4815985 -0.51377815 0.21931922 0.7588347 1.2036307 -0.22164172 0.29172814
-0.06447361 -1.4568832 -0.0015845951 -0.8061125 0.309066 0.83378744 -0.31495866 0.24671458
0.46447355 -0.6053025 0.21794969 -0.3130704 -0.28152615 -0.05415579 0.07935608 -0.110968545
-0.110939875 0.14527515 -0.4297977 0.06808896 0.6265775 0.44198793 0.028580613 -0.19296923
0.91040885 -0.73779374 0.68218404 -0.63654375 -0.8210206 -0.8885032 -0.1415692 0.22336018
-0.33996397 0.19659655 -0.06269849 0.4878301 0.61012924 0.5002362 -0.09786606 0.015551683
0.24092294 -0.16156486 0.13865337 -0.5540799 -0.263133 0.024201281 -0.22007704 -0.0061789644
0.3741185 -0.71220917 0.28097314 -0.63473606 -0.3843089 -0.4090566 -0.26062852 0.2609956
-0.07444732 -0.24126002 -0.04210268 -0.06928437 0.0816784 -0.019503826 -0.09811778 -0.18511012
0.2187666 0.45002586 -0.057723284 0.51098335 -0.38791966 -0.83747077 0.17423049 0.034756724
0.30430162 0.4616965 -0.13439125 0.24088773 -0.1224774 -0.49183935 -0.1257268 -0.40729618
-0.6815355 0.2188288 -0.6743958 0.24993593 0.89081717 0.72214687 -0.076215595 -0.009907274
0.19916245 -0.9484626 0.14389116 -0.8717587 0.1420574 -0.11884488 -0.06002277 0.11051616
-0.43817276 -0.36979795 -0.30827266 -0.46083498 1.0567242 1.5455244 -0.3913849 -0.033861298
-0.4629483 0.53600943 -0.83917034 0.36712748 0.92033064 1.2097971 -0.1775565 0.28789762
0.06539534 -0.5199616 0.05347731 -0.096979916 -0.18604892 0.3445788 0.19797194 0.20202222
0.03392508 -0.1457091 -0.09084741 -0.75830555 0.3969311 0.2409392 -0.12897712 0.14287849
-0.34916973 -0.45767462 -0.32283717 -0.40901452 0.42018127 1.2169933 -0.41796708 0.08350071
0.124489695 -0.38358614 0.11864866 -0.26028287 -0.27842754 -0.4827131 -0.070543595 -0.39435905

fc1.bias f4 [32]
00000000: 8aed 65bd 2a07 97be 04c1 233e 2213 d13d
00000010: 44eb 493b 9c6d a63d b8c2 813d e34b 493e
00000020: df88 9a3d 044a 083e 9e8f 423e 5b01 6f3b
00000030: ce3e 993d 528e a3bd d8c5 ab3d 3081 dbbc
00000040: bab6 cf3d fcb8 2ebe e8ab ab3e 8e82 ce3d
00000050: 96ef 5ebe 8c11 90be 54f9 843e 8458 c2bd
00000060: 82a6 863c a4c3 3dbe c487 47be c873 703c
00000070: d4e6 2abe 467d fe3d 55f0 853d 0ab1 643e
-0.056134738 -0.29497653 0.15991598 0.102087274 0.0030810395 0.08126375 0.06335968 0.19657855
0.07545637 0.13309485 0.19000098 0.0036469314 0.07482682 -0.0798613 0.08387345 -0.026795
0.10142274 -0.17062753 0.33529592 0.10083495 -0.21771082 -0.28138387 0.25971472 -0.09489539
0.016436819 -0.18531662 -0.19485384 0.014676042 -0.16689616 0.12426238 0.0653998 0.2233316

fc2.weight f4 [32, 32]
00000000: 008a 8d3e 28ae 0fbe d8d8 563d eeec d33d
00000010: 329e 163e 3a2c 45be 41b7 123e 7a05 273c
00000020: 1059 a4bd 760b cc3d e4c9 6b3d f40c 19bd
00000030: b7d8 99bb d015 2ebd f23d 15bd 80d1 a03d
00000040: 8e37 5bbd 95fe 34be 929c 4b3d 046b 823d
00000050: b2c4 e2bd 7ed5 c5bd a455 af3b 46c6 1bbc
00000060: 1882 f53d 0c92 32be 5637 7b3e 6d56 853e
00000070: 43f7 2e3d af58 04be 3a81 693d caf7 d8bd
00000080: 7096 07bc 5e34 17be eb0c 4b3e eaff 353d
00000090: 0483 08be 4c1b 883d 9670 383d a85b 653d
000000a0: 5a6c a2bb ff66 5abd 52ac 143e b071 e5bd
000000b0: c3f8 5d3e b2e8 14bd 0a14 00be 5e66 743d
000000c0: c0d1 cfbd 24fe 01be a8bd 113e 9a0e 713e
000000d0: 1a8c a73d 2030 c13d f23f ec3d c953 6a3d
000000e0: fc1f db3c f60b 2e3d 652a 133e 9272 803d
000000f0: 4dc3 a8bd 1ed1 3e3e 83fd d2bc b515 9d3d
00000100: cadd da3e e6ed f5bd 6cd6 b6be 08fd 1d3e
00000110: 6c7d 9d3e 99f0 18be ea20 553d 5044 b83d
00000120: 1394 c6be b234 0d3e 8a43 803e 2c08 683e
00000130: 9c67 84be 40ad 8cbd 9aea ebbe e879 f43c
00000140: 3092 3fbe d42d 643d 4f05 8bbe 4041 c9bd
00000150: 5c25 1dbe 06b1 32be e4df 483e b77c 833e
00000160: eeea 49be 535d 16be 6890 d4be 8ad8 88ba
00000170: 0a8f 52be 9031 21be 790f dbbe 133b 96bd
00000180: 1c48 5bbd cc75 3c3e 826b bcbe 4682 143e
00000190: ab65 a03d 56ba cebd f878 b4bd c86d 4e3e
000001a0: fadf 8abe c3e0 01be ae3b ec3d d295 133e
000001b0: 2203 aebe 869b c0be 7668 89be 3ebd 533d
000001c0: 226c 5bbd eefc da3e e659 5cbe cea1 b53d
000001d0: c147 253d ece2 d8bd b0a1 8f3e 9acf 9c3c
000001e0: c9f1 15be c707 503c 5699 08bf 3055 89be
000001f0: cc8b d8bc 30c5 4abe 7abb dabe b8e8 d83d
00000200: 729c 233d 30cf 0d3e 1dc9 223c c047 5cbc
00000210: 68dc 933e bd01 edbd f29d e9bd 39d6 8a3d
00000220: b6fc 0ebe a0ab 6b3d b644 723e dbd0 253e
00000230: 4433 99bd 8763 01bd cce6 65be e420 19be
00000240: 6fd5 0ebe 3c72 8bbc 186a c33d 2617 1cbe
00000250: a042 51be 7a28 37be 34db 903e d3ee d5bd
00000260: 62dd e83d 8895 aebd 4c3c 1bbe 1af9 d9bc
00000270: daeb 39be 2c0f 82be e482 9abe 0aaf 11be
00000280: ca95 113e 362c abbb 1e7f 20be 1226 b13b
00000290: 1282 aa3e 126c 8bbe 0393 123e 7cf1 05be
000002a0: 99c7 76be ba98 563e e475 c63d 77b4 e53b
000002b0: a56b 2abc e3e0 0abd 80b2 5bbe b52d d7bd
000002c0: 646d 023e c034 1dbe 82f1 0dbe 6e19 2c3d
000002d0: 9aa6 fb3c fcb1 b23d 0d80 e63d fed2 5b3c
000002e0: 7426 b1bd e7be 95be 4c34 79be a679 ee3d
000002f0: c047 c9bc 4242 63be 1032 63be 30f9 cb3c
00000300: 9eaf 3ebe 59c1 063e 1064 8b3e f049 b0bd
00000310: ba53 d4be 6aea 2f3e be35 9dbd cbab b2bd
00000320: 56fb 6b3e 26b3 1fbe f47f e7be d8d7 8ebe
00000330: 647b 2cbd 6a0d 94bb 96aa 0e3f 52b9 a63c
00000340: b600 8ebd 4e5f 703e a4c2 81bb 9c42 9a3d
00000350: 207a 413e 63e8 023d f50b 6ebe 0a50 44be
00000360: 2216 ec3d b1bd ca3e f4d9 d63e 0ccf a93d
00000370: 9ea6 ea3d bc7a f43d 705c b63e 1551 453c
00000380: 7b49 003f 762a 76bd 580d b3bd fe44 4dbe
00000390: 4e72 123e 5a99 9d3d cc70 7fbc ba19 1a3b
000003a0: 0e8e 05be 6879 003f 164f 033e 4ee6 57bd
000003b0: 145a e43e bcb9 003f 916b c5be 0346 82be
000003c0: faa8 6f3e 0849 ccbe 3eec 9a3e 4cf2 79be
000003d0: 6605 3abe c8a5 9b3d f3fd 223d 54c1 c8bd
000003e0: f51b 033f 1cb0 dbbe 2605 cf3e a0e6 de3e
000003f0: af80 84bd 3f23 18be 67b4 863e 2c90 0fbe
0.27644348 -0.14031279 0.052452892 0.10347925 0.14708784 -0.19255152 0.14327718 0.010194177
-0.080248 0.099631235 0.057565585 -0.03736587 -0.004695024 -0.04250127 -0.03643603 0.07852459
-0.053519778 -0.1767524 0.049709864 0.06368068 -0.11072673 -0.09659861 0.0053507853 -0.009507721
0.11987704 -0.17438525 0.24532828 0.260425 0.042716276 -0.12924455 0.057008006 -0.10594137
-0.008275613 -0.1476607 0.19829147 0.04443351 -0.13331228 0.066458315 0.045029245 0.055995613
-0.004956764 -0.05332088 0.1451886 -0.11203325 0.21676926 -0.036354728 -0.12507644 0.059667937
-0.101474285 -0.12694603 0.14232504 0.23540726 0.08181019 0.09433007 0.11535634 0.05720881
0.02674865 0.042491876 0.14371641 0.062718526 -0.08240376 0.1863446 -0.02575565 0.07670156
0.42747337 -0.12008266 -0.35710466 0.15428555 0.30759752 -0.1493553 0.052033342 0.089974046
-0.38784847 0.13789633 0.25051528 0.22659367 -0.25860298 -0.06868982 -0.46077424 0.029843286
-0.1870811 0.055707768 -0.27152488 -0.098268986 -0.15346283 -0.17450342 0.19616657 0.25681087
-0.19718525 -0.14684038 -0.41516423 -0.001044051 -0.20562378 -0.15741563 -0.42785242 -0.07335486
-0.053535566 0.18404311 -0.36800772 0.1450282 0.078318916 -0.100941345 -0.088121355 0.20159066
-0.27124006 -0.12683396 0.115348205 0.1441262 -0.33986765 -0.37618655 -0.2683751 0.051694147
-0.05356992 0.42771095 -0.21518669 0.088687524 0.040351633 -0.10590157 0.28053045 0.01914196
-0.14643015 0.012697167 -0.5335897 -0.26822805 -0.026433848 -0.19801784 -0.42721158 0.105912626
0.03994412 0.13848567 0.009935644 -0.013444841 0.28879094 -0.11572597 -0.11407079 0.06779141
-0.13963589 0.05753672 0.23659024 0.16192953 -0.07480481 -0.031589057 -0.22451323 -0.14953953
-0.13948606 -0.017022245 0.0954172 -0.15243205 -0.20435572 -0.17886534 0.2829224 -0.10445943
0.113703504 -0.085246146 -0.1515972 -0.026608039 -0.18156376 -0.254022 -0.30177987 -0.14226928
0.14217296 -0.005223776 -0.15673491 0.0054061497 0.3330236 -0.2723089 0.14313893 -0.130804
-0.24099578 0.20956698 0.096904546 0.0070100385 -0.010401641 -0.033905875 -0.21454811 -0.10506765
0.12737042 -0.15352154 -0.13861659 0.04201644 0.03071909 0.08725354 0.112548925 0.013417004
-0.086499125 -0.2924721 -0.24336356 0.11644296 -0.024570346 -0.22193244 -0.22187066 0.024899095
-0.1862168 0.13159694 0.2722478 -0.086078525 -0.41470128 0.17179266 -0.07676266 -0.08724173
0.23045096 -0.15595683 -0.45214808 -0.2789905 -0.042109862 -0.0045182006 0.55729043 0.02035204
-0.06933729 0.23473856 -0.0039599705 0.07532236 0.18894243 0.031959902 -0.23246749 -0.19171157
0.11527659 0.39597848 0.4196316 0.08291444 0.11457561 0.11937472 0.356174 0.012043257
0.5011212 -0.060099088 -0.087427795 -0.2004585 0.14301416 0.07695265 -0.015590858 0.002351387
-0.13042471 0.5018525 0.12823138 -0.05270987 0.44599974 0.5028341 -0.3855863 -0.2544404
0.23404303 -0.39899468 0.30258363 -0.24408835 -0.18166122 0.0759998 0.039792966 -0.098024994
0.51214534 -0.42907798 0.40433615 0.43535328 -0.06469857 -0.14857195 0.2630951 -0.14019841

fc2.bias f4 [32]
00000000: a87a 43bd 7c14 883d 64cc be3d 8e12 afbd
00000010: 0003 10be bc46 133d fad6 01be fccf b33d
00000020: 0a4c a3be e766 03be b8d4 bb3d d20a 9dbd
00000030: 6e85 b1bd 8ef2 b6bc 0aae edbd 001c 323c
00000040: 6608 2abe 2ecc 22bd e89d cabd ce58 16be
00000050: 7ee8 143d 3978 e0bc 9a4d d13c d622 ebbd
00000060: 78a1 a7bd 5037 a13c 89b0 623d a83f efbd
00000070: dae0 d3bc 8aff 273e ad01 ad3d 9e53 19bc
-0.047724396 0.06644532 0.09316328 -0.08548461 -0.14063644 0.03595613 -0.12679663 0.08779904
-0.3189395 -0.12832223 0.09171432 -0.076680794 -0.08668028 -0.022332456 -0.11605461 0.0108709335
-0.16604766 -0.039745502 -0.098933995 -0.14682314 0.036354534 -0.027401077 0.025549699 -0.11481254
-0.081850946 0.019679695 0.05534414 -0.11682063 -0.025864054 0.16406074 0.08447585 -0.009358315

fc3.weight f4 [4, 32]
00000000: fd34 023c 3ad9 47be 3612 c33e 52b6 4a3e
00000010: e06e 9e3e 0095 f73d dd8f b4be d948 02bd
00000020: 5b71 2b3e 5e7e 533e a975 e6bd c0ef 4c3d
00000030: ba8e 523e fc8b 01bd 46a2 b03e 9200 a43e
00000040: 4ed0 8e3e e4b6 4abd 7cc0 10be 164c 8e3e
00000050: 8d31 823e b0b7 92bd 0b0d 1cbd 30d8 ec3c
00000060: 6ebc c9bd 8af0 a13d 56c3 653e b48a 3c3e
00000070: dd39 84be 008b 2cbe b899 09bd 4cb7 55be
00000080: ee1f 6dbe c4f5 59bd 2815 403f cc54 6b3f
00000090: 6d14 7f3e 8e35 3c3e f0a4 1abf 32c0 85bf
000000a0: c638 e9be 24c2 cdbe 469b 0ebf 90f8 a7bf
000000b0: a60c b23e a20c e0bd 4578 023e 3b68 90bf
000000c0: 4a39 d93d b479 91bf 5cf5 54bf 0228 4c3e
000000d0: 4417 183d 4dd2 b5bf 3076 c5bf 6ecf 4c3e
000000e0: e2c4 773f 16f6 ef3e 64e8 2c3f 49e5 8ebe
000000f0: 4034 6dbf be24 cc3e 28f0 4c3c 922d 2abf
00000100: 70e1 30be 0c65 4d3e b871 85bf 0c90 15bf
00000110: e7c4 0fbf 2840 18bf fb87 8d3f dd45 99be
00000120: 06a2 bd3d 2a24 c23e 56d7 1d3f 488b 823e
00000130: 98ca 9dbe e883 3fbe d8f8 a4be 7431 89be
00000140: f481 a1be f224 b33e 7e65 863f ba71 4abf
00000150: c9bd 4dbf 7a11 133f f0f1 cd3d 4cd2 bcbe
00000160: 4217 ccbe d0e6 a6bf 76e6 39bf 9a08 9fbd
00000170: 0d02 803f 92ee a3be 282c f63e 2fed 71bd
00000180: 2c12 7a3e e153 073e e60e 2a3e 2e71 d6be
00000190: 6ada 953e 6cf0 a13e 344a bdbe e7c0 873f
000001a0: be2a 21be c639 a8bd 2814 133e 0f2a 813f
000001b0: 6e42 3f3e ca75 d63e 3a72 a53e 9ec8 b43f
000001c0: 5c83 47bb de24 413f 78d8 24bd ff7d 9a3e
000001d0: 7269 103f ee18 523f 10b6 af3f 5a62 41be
000001e0: 9826 0bbf c4c2 0f3f ccbf 2d3e 18a7 343e
000001f0: 0e24 1d3e 9a1e 6a3d 6227 63be e422 7f3f
0.007947204 -0.19516459 0.3809983 0.19796112 0.30943966 0.12088966 -0.3526601 -0.031807754
0.1674246 0.20653674 -0.11252911 0.05003333 0.20562258 -0.03162764 0.34498805 0.32031685
0.278933 -0.049490824 -0.14135927 0.27792424 0.2542843 -0.07163942 -0.038098376 0.02891168
-0.09850393 0.07907207 0.22437796 0.18412286 -0.25825396 -0.168499 -0.033593863 -0.20870703
-0.23156711 -0.053212896 0.7503228 0.91926265 0.24910136 0.18379804 -0.60407925 -1.0449278
-0.45551127 -0.4018718 -0.5570568 -1.312273 0.34775275 -0.109399095 0.12741192 -1.1281809
0.1060663 -1.1365266 -0.8318689 0.19937137 0.037131563 -1.4204804 -1.5426693 0.20001003
0.96784794 0.46867436 0.675421 -0.27909306 -0.9265785 0.39871782 0.01250843 -0.66475785
-0.17273498 0.20058078 -1.0425329 -0.58422923 -0.56159824 -0.59472895 1.1057123 -0.29936114
0.09259419 0.37918216 0.616567 0.25496888 -0.3081863 -0.18702662 -0.32221103 -0.26795542
-0.3154446 0.34989125 1.0499723 -0.7907978 -0.80367714 0.5744854 0.100559115 -0.36879194
-0.39861494 -1.3039188 -0.7261728 -0.077653125 1.0000626 -0.32017952 0.48080564 -0.059064087
0.24420995 0.13215591 0.16607246 -0.41883224 0.292682 0.3162874 -0.36970675 1.0605744
-0.15738961 -0.082141444 0.14363158 1.009096 0.18677685 0.4188674 0.3231371 1.4123724
-0.0030443287 0.7544688 -0.040245503 0.30174252 0.56410897 0.8206929 1.3727436 -0.18885174
-0.54355764 0.56156564 0.16967696 0.17641866 0.15345785 0.05715809 -0.22182992 0.99662614

fc3.bias f4 [4]
00000000: 123b 23bf 4885 6d3e c8a0 d43e f46a 763e
-0.6376201 0.23195374 0.41528916 0.24064237
