ckpts/LunarLander-v2/TRPO/30/critic.pth (torch_old, 6592 bytes, 5 tensors)

fc1.weight f4 [32, 8]
000000 de 2a 82 3e 43 8a 64 3e d4 3a fd bd 3f 49 08 3e
       0.2542333 0.22318368 -0.12364736 0.13309191
000010 42 3a 80 3d 68 1e eb 3b 72 ff 13 be b0 b5 b1 3d
       0.06261112 0.0071752556 -0.14452913 0.08677232
000020 ab 12 a1 3e 2a e7 d0 bd 7c da 21 be 23 84 7f bd
       0.31459555 -0.10200341 -0.15806001 -0.062381875
000030 62 14 d8 3d de f4 a1 3e 53 b0 96 3e 84 9a 22 be
       0.10550763 0.3163213 0.294314 -0.15879256
000040 9e d1 73 3e 3b fb 4d be 9e 46 35 be c7 9d 9d be
       0.23810431 -0.20115368 -0.1770272 -0.30784437
000050 eb 5f 2b 3e 5a 9c a7 3b 77 d9 9b be 5c 77 bd bd
       0.16735809 0.005115074 -0.3043935 -0.092512816
000060 18 98 4a be 32 2b 0b bd 93 4f ae 3e 68 f7 ab 3e
       -0.19784582 -0.03397674 0.34045085 0.33587193
000070 18 61 8a 3e d9 aa bc bc 05 38 02 3e 84 43 f7 3d
       0.27027202 -0.023030685 0.12716682 0.120734245
000080 0b 15 3b be 3f 37 a1 bd 1e 48 7c bb 5f 4d 95 be
       -0.18269746 -0.078718655 -0.0038495134 -0.29160592
000090 5e 21 54 be 82 b4 42 bd ae f7 3f be 37 ae 33 3c
       -0.20715854 -0.047535427 -0.18746826 0.010966829
0000a0 2b 3a ae 3e 5e e0 94 bd 67 e9 9e be d9 04 85 bd
       0.34028754 -0.07269357 -0.31037447 -0.06495065
0000b0 2c f0 8c be 9b 94 87 3d 20 d9 73 bd 1c e9 97 3e
       -0.27526987 0.06620141 -0.05953324 0.29670036
0000c0 58 53 5d 3d 12 44 a5 3e d9 f1 d7 bd c0 a8 f1 3d
       0.05403456 0.32278496 -0.10544176 0.11799765
0000d0 c0 b8 b6 3e 51 3e 2d 3e 7a 84 98 bc ec 9d 97 3d
       0.35687828 0.16918303 -0.018617857 0.07403168
0000e0 60 86 e3 bd 2b 41 4d 3e d5 2c dd bb d0 a2 11 be
       -0.11109614 0.20044391 -0.006749729 -0.14222264
0000f0 d6 e4 19 be e0 cd ae 3e d9 c3 65 bd 50 9d cd 3d
       -0.150287 0.34141445 -0.056094978 0.100397706
000100 0a 85 fe bd af e0 52 be ee 77 37 be c0 39 7b 3e
       -0.12427719 -0.20593522 -0.17916843 0.24533749
000110 27 a3 b8 bd 26 b5 20 be 50 1d 3c 3d 87 97 7a 3e
       -0.09015494 -0.15694103 0.045926392 0.24471866
000120 f1 07 8f 3e 0f 0f 4a be 12 b2 8f 3e f6 62 41 be
       0.27935746 -0.19732307 0.28065544 -0.18885407
000130 de b9 a8 3d c7 0f 81 3e 70 a6 55 be 85 78 88 be
       0.08238576 0.2520735 -0.20864272 -0.2665445
000140 7e 6b e1 3d 58 ce 10 3e b3 00 b1 be 4d 92 57 be
       0.11006831 0.14141214 -0.34570846 -0.21051903
000150 14 73 a8 3e a5 d0 f1 3d 63 31 5d 3e 81 3c 8a be
       0.32900298 0.11807374 0.21600871 -0.26999286
000160 a3 d8 9a be 21 27 b0 3e d0 13 f8 3c b0 1d 82 3d
       -0.30243406 0.34404853 0.030282885 0.06353319
000170 40 e2 96 3e 34 52 d2 3c d5 d5 46 be a7 2e b4 bd
       0.2946949 0.025673963 -0.19417508 -0.08797961
000180 c5 55 4c be 14 73 70 3e 5f db 5d be b8 3f a1 be
       -0.19954593 0.23481399 -0.21665715 -0.31493926
000190 71 aa 29 3d 86 d0 a5 be f7 23 9d 3e 4e 0c bd be
       0.04142231 -0.32385653 0.30691501 -0.3692345
0001a0 91 76 33 3d 0e 1f 92 be 87 d4 a7 3d 38 6d ad 3e
       0.043814246 -0.28539318 0.08194833 0.3387239
0001b0 68 a9 0c be 36 ef 99 3e 32 94 34 3e 75 e0 a6 3c
       -0.13736498 0.30065316 0.17634657 0.020370701
0001c0 39 72 7d 3d fe 14 d0 ba ef d2 55 bd 23 d6 1e 3c
       0.06187651 -0.0015875397 -0.052203115 0.009694609
0001d0 f7 2e 01 be fb af 91 be 8d 3e 0e 3e 3c 74 6c 3e
       -0.12615572 -0.28454575 0.13891049 0.23091215
0001e0 ed 0f 80 be 68 76 ef 3d 07 32 80 be 1a fc 37 be
       -0.2501215 0.11692506 -0.25038168 -0.17967263
0001f0 90 02 4e bd e4 f9 b3 bd c6 b6 04 be df f3 8d be
       -0.050295413 -0.08787897 -0.12960348 -0.2772512
000200 e0 bc e6 3d 89 ae 31 bd e5 44 cf bd 98 17 6e 3e
       0.11266494 -0.04337934 -0.101205625 0.23251188
000210 8c bb 74 be b8 18 80 bd 6a 1e 80 3e 20 42 5d be
       -0.23899668 -0.06254715 0.25023204 -0.21607256
000220 f0 a0 15 bd 9f e5 3f be 65 0b 6c 3d c8 4d b7 3e
       -0.036530435 -0.18739937 0.057628054 0.3580153
000230 3c dd 8b be 71 4e 9b be d0 90 f2 bb bc 0d 9f 3e
       -0.27317226 -0.30333284 -0.007402517 0.31065166
000240 cb 59 03 bd 79 cd bf 3e 29 2f 19 be 8f bf 3a 3e
       -0.032068055 0.3746145 -0.14959396 0.18237136
000250 bf 62 a4 be fe 82 00 3e 95 63 a1 be 22 71 a4 3e
       -0.32106587 0.1254997 -0.31521288 0.32117563
000260 6c 3c 64 bd c1 45 ec 3d 3b 30 cd bc 1d fe e0 bd
       -0.055721685 0.11536742 -0.025047412 -0.10985968
000270 a3 31 b0 be 6a af a1 be ac 92 4f be 83 96 79 3e
       -0.3441287 -0.31579143 -0.20270795 0.24373822
000280 67 33 93 bd 1c 3a 1c bd c3 58 a8 3e 0e bc 3c 3e
       -0.071875386 -0.038141355 0.3288022 0.18431112
000290 97 a0 a0 be ae 08 91 3e 5a b3 7e 3e 12 df 04 3d
       -0.3137252 0.28326935 0.24873105 0.0324393
0002a0 e6 ea a2 bc 99 41 b1 be 1c e5 0b 3e 5b c5 c8 bd
       -0.019887399 -0.3462036 0.13661617 -0.098032676
0002b0 89 8c 27 bd d9 8e 31 be 4c eb 98 3e e7 94 64 3e
       -0.04090551 -0.17339648 0.29867017 0.22322427
0002c0 31 b4 9f ba c0 28 18 be 3a 01 28 be 46 2a 8d 3d
       -0.0012184439 -0.14859295 -0.16406718 0.06892829
0002d0 d6 be 1b be 76 77 74 be 77 67 79 be 89 e4 81 3e
       -0.15209517 -0.23873696 -0.24355875 0.2536967
0002e0 d3 f0 aa be 81 76 8f be c1 d7 0b be 3e 2f 54 3d
       -0.3338686 -0.280201 -0.13656522 0.051802866
0002f0 a8 0f 64 bd f0 d1 22 be 61 7a 28 be 58 eb 15 3e
       -0.055678993 -0.15900397 -0.16452934 0.14640558
000300 b1 e1 b0 3e d6 3e 3b be 58 49 67 3e 98 67 53 3e
       0.3454719 -0.18285689 0.22586572 0.20644987
000310 4f b1 c4 bd 2b ad a7 be aa 21 92 be 71 80 96 be
       -0.096041314 -0.32749304 -0.2854131 -0.29394868
000320 98 55 87 be 89 f9 86 be e9 68 1c bd 08 70 2a be
       -0.2643249 -0.26362255 -0.038185988 -0.16644299
000330 07 ea 80 3e 36 6f 92 3d 21 17 c9 3c 63 0b a8 3c
       0.2517855 0.07150118 0.024547162 0.020513242
000340 74 fd 84 be 63 05 5f bd 38 9d ae be fe f5 03 3e
       -0.2597462 -0.054448497 -0.34104323 0.12886807
000350 31 1f 0d be 6c c9 89 3d 43 5b 0a bd 1a d9 a6 3e
       -0.1378143 0.06727871 -0.03377844 0.3258751
000360 d8 12 68 be da 81 be 3e 94 8f ad 3e a6 8e 9a be
       -0.22663438 0.37208444 0.33898604 -0.30186957
000370 74 2d ab 3d e9 b1 83 be 33 87 83 bd 7f 78 2f 3e
       0.08358279 -0.25721672 -0.064222716 0.1713581
000380 03 15 8b be f2 ee 98 be 42 52 42 3e 98 48 6d be
       -0.27164468 -0.298698 0.18976691 -0.23172224
000390 ce f2 94 3d a7 4c 6e be 66 f9 e8 bd cc f5 81 bd
       0.07272874 -0.23271428 -0.11375694 -0.0634571
0003a0 4b 24 97 bc 25 03 a2 3c 6b ff a7 3d 86 19 5f 3e
       -0.018449923 0.01977689 0.08203014 0.2178708
0003b0 43 4b 91 3e 05 8b e0 bc 89 34 1d be 35 ad b3 3e
       0.28377733 -0.02741004 -0.15352072 0.35093084
0003c0 3a c3 8f 3e 4d ed 4f 3d 04 37 ac be 86 4c 37 be
       0.28078634 0.050763417 -0.33635724 -0.17900285
0003d0 fc ad a3 be f2 d4 4c 3c 2c 5c ad 3e e2 b5 a1 bd
       -0.31968677 0.012501942 0.33859384 -0.078960195
0003e0 a8 08 1b 3b 9d e7 8c 3d 8f ff 8f be e2 2d ea 3c
       0.0023656283 0.06880114 -0.28124663 0.028586332
0003f0 df e0 9d 3c 5f 7d b3 be aa ea 7d 3e c3 b5 11 be
       0.019272266 -0.35056588 0.24796548 -0.14229493

fc1.bias f4 [32]
000000 a5 95 0d 3e 54 b6 a9 be c5 e9 61 be ab 30 c7 3d
       0.13826616 -0.33146918 -0.22061832 0.097260796
000010 ee 45 09 bd b5 84 80 3e e6 c6 d6 bd d9 6c 55 be
       -0.033513956 0.25101247 -0.104871556 -0.20842303
000020 8c cf fd bd 01 1f 6f 3e 6b 72 16 be 74 b4 f4 3d
       -0.12393102 0.23351671 -0.14692084 0.11948481
000030 27 ec a2 be b8 d9 47 3e 36 3e 81 bd 83 2a e0 3d
       -0.31820795 0.19516647 -0.06310694 0.109456085
000040 23 8e 6f be 63 d7 8f 3e f6 f9 df bd 31 9e 45 3d
       -0.23394065 0.28094015 -0.10936348 0.048246566
000050 27 b6 a2 be a8 2d 9a 3e 49 61 af 3e 59 3f dd bd
       -0.31779596 0.30112958 0.3425391 -0.10803098
000060 1d e2 e2 3d eb d7 98 bd 85 55 4b 3e 56 f5 3e 3e
       0.11078284 -0.07463058 0.19856842 0.18648276
000070 09 9c 8a 3e 2b 7e 88 3e 73 09 36 bd 67 d5 54 3e
       0.2707217 0.2665876 -0.044442605 0.20784532

fc2.weight f4 [32, 32]
000000 80 a3 23 be 8c 27 a9 3d d8 bd 4a bd fd 2c 54 3e
       -0.15980339 0.08259496 -0.049497455 0.20720287
000010 7d 5c 3b 3d 3f d1 b8 bd 26 09 14 3e d4 14 25 3d
       0.0457425 -0.090242855 0.14456615 0.040303066
000020 04 65 8c 3a 09 97 ab 3d eb df aa bd 5d 14 0c bd
       0.0010711257 0.08378417 -0.0834349 -0.034199107
000030 e8 35 09 be 87 93 36 3d 7a ed 94 3d 88 bf 31 3d
       -0.1339947 0.044574287 0.072718576 0.04339555
000040 8e 09 0a 3e 62 24 8b bc 38 5c 9c bd 7f 21 cd 3d
       0.13480207 -0.016985122 -0.07634777 0.100161545
000050 ee af ad 3d e9 03 d5 bd 4f 08 2a 3d d1 25 33 3e
       0.084808215 -0.104011364 0.04151183 0.17494895
000060 58 98 14 be 00 b2 3e 3e 86 ce 93 bd f5 55 85 bd
       -0.1451124 0.18622589 -0.072171256 -0.06510536
000070 3d 1d 0b be 28 8a 96 bd 05 f2 89 3d e3 34 e9 3c
       -0.13585372 -0.0735057 0.06735615 0.028467601
000080 94 ba 39 3e c7 8c 2d be 75 c9 d5 3c fe ae 2b bd
       0.1813758 -0.16948234 0.026097039 -0.041914932
000090 ee e9 62 3c 81 9d 9e bd 14 9b 98 bc 22 fb d1 bd
       0.0138497185 -0.07744885 -0.018628635 -0.10252978
0000a0 2b 5a f8 bd df 6e e4 3d bf 92 16 bb d6 2d 30 3e
       -0.12126573 0.111539595 -0.002297565 0.17204985
0000b0 fe 42 0f be 65 f0 93 bd d3 70 97 bd cd 6b 09 be
       -0.13990399 -0.07223586 -0.073945664 -0.13420029
0000c0 f1 de 15 3e d6 ec 1b be d6 40 04 be 7f bb 32 3e
       0.14635827 -0.15227064 -0.12915358 0.17454337
0000d0 10 7d ed 3c 3c 90 6a 3d 32 75 74 bd 2a d6 ff 3c
       0.028990299 0.05726646 -0.05968208 0.031230051
0000e0 57 a3 e2 3d c1 a2 34 be ad 1b 3a be dc ed 82 bd
       0.11066311 -0.1764021 -0.1817462 -0.06393024
0000f0 4f 91 06 3d ae 87 08 be e5 e1 2c 3e be e2 25 3e
       0.03285342 -0.13333008 0.16883047 0.16199777
000100 54 91 1c be b2 1b e6 bb e8 b9 f0 3d 43 d7 79 3d
       -0.15289813 -0.0070223445 0.11754209 0.060996305
000110 73 d1 d6 3d 11 17 2d 3e 45 c1 ab 3d 42 a9 4f 3c
       0.10489168 0.1690333 0.083864726 0.012674632
000120 0b 29 0a 3e 5e 81 35 be 4f ee 05 be 8e a4 27 bd
       0.13492219 -0.17725131 -0.13079189 -0.040928416
000130 cc c1 8f bd f8 ea 24 3d a1 99 90 3d 54 7b b5 bd
       -0.07019386 0.040263146 0.070605524 -0.088614136
000140 69 ad 1b bd 64 ad 01 3e 27 58 da bb 9b 7e 29 be
       -0.038007174 0.126638 -0.0066633406 -0.16552202
000150 b8 47 fb 3c d4 e9 fe 3d 21 35 bd 3d e2 79 53 bd
       0.030673847 0.12446943 0.09238649 -0.05162991
000160 a5 c8 f6 3d 0a 04 1c bd 28 ae 96 bd 54 11 49 be
       0.12049989 -0.03808979 -0.073574364 -0.19635516
000170 ef 4a 0f 3e ac fa 53 3e 5f b7 be 3c f7 45 02 be
       0.13993429 0.20701092 0.023280798 -0.12722002
000180 7f 92 90 bc 47 12 0d 3e b5 e5 c9 bc 42 ce e6 3d
       -0.01764798 0.13776504 -0.024645666 0.11269809
000190 39 62 46 3e 5c a9 18 be dc 30 7e bd b1 a7 39 bc
       0.19373406 -0.14908355 -0.062058315 -0.011331485
0001a0 b8 b6 28 3d 8a ac 8e bd 00 05 de 3d 10 39 1d 3e
       0.04118988 -0.06966503 0.108407974 0.15353799
0001b0 c6 7e 0c 3e 77 7f 4e 3d 1d e2 02 3e 85 b8 49 3e
       0.13720235 0.05041453 0.12781568 0.19699295
0001c0 75 1a 3d be 5d 4a f6 bd 9b 26 4f 3e f3 69 87 3d
       -0.18467124 -0.120259024 0.2022957 0.06612005
0001d0 50 fa 27 bd 78 89 e9 3b 89 77 0d be 16 21 6c 3d
       -0.0410102 0.0071269833 -0.1381513 0.05764874
0001e0 1a d8 00 3e c3 c1 17 3e 3e 4d 40 be 89 f8 59 bd
       0.12582436 0.14820008 -0.18779466 -0.053215537
0001f0 84 b1 e8 bd f1 75 bd bd c4 43 27 bd 35 98 7f bd
       -0.113619834 -0.09251011 -0.04083611 -0.062401015
000200 64 ed 10 be 68 62 d0 bd 92 6b 8c 3d f5 19 dd 3b
       -0.14153057 -0.101750195 0.06856455 0.006747479
000210 58 4e 88 bc 0c 6a 39 3e d2 0a 69 bd d3 93 13 be
       -0.01663892 0.1810686 -0.056895085 -0.14411859
000220 7e b7 8d bd 1a c6 b4 3d e3 55 60 3d 9c 8e 82 3c
       -0.06919764 0.088268474 0.054769408 0.015937142
000230 74 63 17 3e 5d f4 ae 3d 1f f1 f9 bd 6f 97 08 be
       0.14784032 0.08542702 -0.12204193 -0.13339017
000240 bc 22 08 3e 64 7d 07 be 8e 8a f5 bd c8 ba 45 be
       0.132945 -0.13231426 -0.11989318 -0.19309533
000250 4b ff 34 3d c6 db 33 3d 3e 80 c1 bd a9 c5 2e bd
       0.04418878 0.043910764 -0.094482884 -0.042668972
000260 36 9b 1c bd a8 7f 0b be b0 58 13 3d 5a a8 16 bd
       -0.03823396 -0.13622916 0.03597325 -0.036781646
000270 d8 1d 08 be e2 79 01 bd 44 31 9e 3d 1c b9 26 3e
       -0.13292634 -0.031610377 0.077242404 0.16281551
000280 2f 63 93 bd 86 e5 10 3e 4f b3 75 3d 88 cb 6b 3d
       -0.07196652 0.14150056 0.059985455 0.05756715
000290 81 ac 3c 3c d5 7e b5 bd c7 e7 0c 3e 81 7c f3 bd
       0.0115157375 -0.08862082 0.13760291 -0.118889816
0002a0 a0 ae b8 bd fa 73 c3 bd 1c 50 25 be 30 c6 82 3c
       -0.09017682 -0.09543605 -0.1614384 0.015963644
0002b0 55 71 35 be 4d e8 0c be a0 3c 06 3e 3e ec bb 3d
       -0.17719014 -0.1376049 0.13109064 0.09175919
0002c0 0b eb 05 be fa 3e 21 3e 8b 62 bc 3d ef 84 c6 bd
       -0.13077943 0.1574668 0.09198483 -0.09693324
0002d0 51 a9 d7 bd 9e b2 24 3e e4 e7 ae 3c 95 ae 24 3e
       -0.105303414 0.16083762 0.021350808 0.16082223
0002e0 1a ab 9b bd 3c 23 32 3e 15 b1 9e bd 40 a4 03 be
       -0.076009944 0.17396253 -0.077486195 -0.12855625
0002f0 14 91 d4 3d cb 2b 1e 3e 7b bb 22 3e 87 d3 28 be
       0.10379234 0.15446393 0.1589183 -0.16486941
000300 19 26 ec 3d 86 ab e0 bc 9b 12 17 be b4 c1 5d bd
       0.11530704 -0.027425539 -0.14753191 -0.054139808
000310 a3 ae d6 3d 92 da ca 3d e9 b0 12 3e 28 7a 4c be
       0.10482528 0.0990497 0.14325298 -0.19968474
000320 df d7 4a 3e 99 f5 08 be 28 11 fd bd 4d bf 45 be
       0.19808911 -0.13374938 -0.12356788 -0.19311257
000330 91 df e3 3c 4c 2f 90 3d bf 48 fc 3c 56 ce 23 bd
       0.027816566 0.07040271 0.030796407 -0.0399917
000340 4d a8 3c bc 19 92 45 3d 70 23 f4 3d 50 c0 30 be
       -0.011514735 0.048235033 0.11920822 -0.17260861
000350 60 f7 59 3d c0 f7 e6 3d 34 0c 18 3d 50 58 56 3d
       0.05321443 0.11277723 0.037121013 0.052330315
000360 17 4f 1d be 46 3e 47 3e c6 20 f6 bd 96 f3 4c 3d
       -0.15362202 0.19457349 -0.1201797 0.05003699
000370 4e 18 6b bb 38 90 4a 3e 0f fa c8 bc 3c 63 0b be
       -0.003587264 0.19781578 -0.0245333 -0.13612074
000380 f2 25 f3 3d f5 cf 8a 3d 8a 52 4e bd 66 f6 0f be
       0.11872472 0.06777946 -0.050371684 -0.14058837
000390 72 12 ba 3d 12 1d eb 3d 27 1f 4f bd 15 97 74 bd
       0.090855494 0.11480154 -0.05056682 -0.059714396
0003a0 2e f9 b2 3d c1 61 fd 3d 1f 52 d3 bd db 6a 03 be
       0.087389335 0.12372161 -0.10318398 -0.12833731
0003b0 f3 c7 15 be 13 6a 14 be e7 2d df 3c 93 41 9b 3d
       -0.14627056 -0.14493589 0.027243568 0.07580867
0003c0 f7 08 44 3d a5 12 bc 3d e4 7d 69 bc 1a 07 2f be
       0.047860112 0.09183244 -0.014251206 -0.17092553
0003d0 7a c0 ab bd c9 29 ee bb b3 d2 00 3e 83 c4 a2 bd
       -0.08386321 -0.007268165 0.12580375 -0.07947638
0003e0 64 75 27 be 75 43 1d bd 31 d0 b7 3d eb ea 35 bd
       -0.16353375 -0.03839441 0.08975256 -0.04441349
0003f0 d6 36 75 3d 15 f6 07 be 51 39 e3 bd ed 46 61 3d
       0.05986675 -0.13277467 -0.110949166 0.05499928

fc2.bias f4 [32]
000000 5e 65 de 3c ad 7e 1b 3e 73 30 da bd 88 57 21 3d
       0.027147945 0.15185042 -0.10653772 0.039390117
000010 bd d1 cf 3c 9e b0 b3 bd 6a 24 31 bd 57 7b 07 3e
       0.025368566 -0.087739214 -0.043247618 0.13230644
000020 f6 da d8 3d 08 c0 d9 3d e2 ab 98 3d aa e4 47 3d
       0.105886385 0.1063233 0.07454659 0.048802055
000030 5f d3 47 3c 81 95 d8 3c 19 b7 d7 bd 48 38 6c 3d
       0.012196391 0.026438477 -0.1053297 0.05767086
000040 b8 82 1d bd c6 76 00 3e f9 ef 0e bd 5f 50 ac 3d
       -0.03845474 0.12545308 -0.034896825 0.08413767
000050 23 f6 3f be b5 eb 36 3e e0 80 0b be 28 69 c2 3d
       -0.18746237 0.17863353 -0.1362338 0.09492713
000060 d2 14 b4 3d b8 0a 4d 3c 6b b4 76 3d 9c 8f b2 bc
       0.08793034 0.012514763 0.060230654 -0.021796994
000070 8e df 0f be 4a 4b 67 bd 7a 4a 95 3d 23 cc 9a 3d
       -0.14050123 -0.056468286 0.07289596 0.07558467

fc3.weight f4 [1, 32]
000000 1f 38 1c be 9c d0 03 3e 14 ff 47 be 23 17 6a 3d
       -0.15255783 0.12872547 -0.19530898 0.05715097
000010 3e 58 5d bd 7f 87 42 be c2 35 dd bd d8 d8 1a be
       -0.054039232 -0.18997 -0.10801269 -0.15121782
000020 b1 a4 83 bd 7a 07 e1 3d 10 c5 18 3d 0d 48 8d 3d
       -0.06427897 0.10987754 0.03729731 0.06898508
000030 fe 0b 7e 3d 35 b0 1b bd b6 c1 b0 3d cd 93 f8 3d
       0.062023155 -0.03800984 0.086306974 0.12137566
000040 1f 13 59 3e b0 48 11 3e 46 20 20 be 6f 00 bb 3d
       0.211987 0.14187884 -0.15637311 0.09130942
000050 21 a1 41 be 9f c0 8a 3d af 91 72 bd 28 03 f9 3d
       -0.18909122 0.06775021 -0.059220966 0.12158805
000060 cb b5 b5 bd 09 0b 35 be 2b 4c 0f 3d c2 6b 3d 3e
       -0.08872565 -0.17679991 0.03498475 0.18498138
000070 12 52 ca bd 36 cc 37 be 91 69 a8 3d 19 da 9e 3c
       -0.09878935 -0.17948994 0.0822326 0.019391106
